{
  "weightsManifest": [
    {
      "paths": [
        "group1-shard1of1"
      ],
      "weights": [
        {
          "name": "batch_normalization_1/beta",
          "shape": [
            32
          ],
          "dtype": "float32"
        },
        {
          "name": "batch_normalization_1/moving_mean",
          "shape": [
            32
          ],
          "dtype": "float32"
        },
        {
          "name": "batch_normalization_1/moving_variance",
          "shape": [
            32
          ],
          "dtype": "float32"
        }
      ]
    },
    {
      "paths": [
        "group2-shard1of1"
      ],
      "weights": [
        {
          "name": "batch_normalization_10/beta",
          "shape": [
            96
          ],
          "dtype": "float32"
        },
        {
          "name": "batch_normalization_10/moving_mean",
          "shape": [
            96
          ],
          "dtype": "float32"
        },
        {
          "name": "batch_normalization_10/moving_variance",
          "shape": [
            96
          ],
          "dtype": "float32"
        }
      ]
    },
    {
      "paths": [
        "group3-shard1of1"
      ],
      "weights": [
        {
          "name": "batch_normalization_11/beta",
          "shape": [
            96
          ],
          "dtype": "float32"
        },
        {
          "name": "batch_normalization_11/moving_mean",
          "shape": [
            96
          ],
          "dtype": "float32"
        },
        {
          "name": "batch_normalization_11/moving_variance",
          "shape": [
            96
          ],
          "dtype": "float32"
        }
      ]
    },
    {
      "paths": [
        "group4-shard1of1"
      ],
      "weights": [
        {
          "name": "batch_normalization_12/beta",
          "shape": [
            32
          ],
          "dtype": "float32"
        },
        {
          "name": "batch_normalization_12/moving_mean",
          "shape": [
            32
          ],
          "dtype": "float32"
        },
        {
          "name": "batch_normalization_12/moving_variance",
          "shape": [
            32
          ],
          "dtype": "float32"
        }
      ]
    },
    {
      "paths": [
        "group5-shard1of1"
      ],
      "weights": [
        {
          "name": "batch_normalization_13/beta",
          "shape": [
            64
          ],
          "dtype": "float32"
        },
        {
          "name": "batch_normalization_13/moving_mean",
          "shape": [
            64
          ],
          "dtype": "float32"
        },
        {
          "name": "batch_normalization_13/moving_variance",
          "shape": [
            64
          ],
          "dtype": "float32"
        }
      ]
    },
    {
      "paths": [
        "group6-shard1of1"
      ],
      "weights": [
        {
          "name": "batch_normalization_14/beta",
          "shape": [
            48
          ],
          "dtype": "float32"
        },
        {
          "name": "batch_normalization_14/moving_mean",
          "shape": [
            48
          ],
          "dtype": "float32"
        },
        {
          "name": "batch_normalization_14/moving_variance",
          "shape": [
            48
          ],
          "dtype": "float32"
        }
      ]
    },
    {
      "paths": [
        "group7-shard1of1"
      ],
      "weights": [
        {
          "name": "batch_normalization_15/beta",
          "shape": [
            64
          ],
          "dtype": "float32"
        },
        {
          "name": "batch_normalization_15/moving_mean",
          "shape": [
            64
          ],
          "dtype": "float32"
        },
        {
          "name": "batch_normalization_15/moving_variance",
          "shape": [
            64
          ],
          "dtype": "float32"
        }
      ]
    },
    {
      "paths": [
        "group8-shard1of1"
      ],
      "weights": [
        {
          "name": "batch_normalization_16/beta",
          "shape": [
            64
          ],
          "dtype": "float32"
        },
        {
          "name": "batch_normalization_16/moving_mean",
          "shape": [
            64
          ],
          "dtype": "float32"
        },
        {
          "name": "batch_normalization_16/moving_variance",
          "shape": [
            64
          ],
          "dtype": "float32"
        }
      ]
    },
    {
      "paths": [
        "group9-shard1of1"
      ],
      "weights": [
        {
          "name": "batch_normalization_17/beta",
          "shape": [
            96
          ],
          "dtype": "float32"
        },
        {
          "name": "batch_normalization_17/moving_mean",
          "shape": [
            96
          ],
          "dtype": "float32"
        },
        {
          "name": "batch_normalization_17/moving_variance",
          "shape": [
            96
          ],
          "dtype": "float32"
        }
      ]
    },
    {
      "paths": [
        "group10-shard1of1"
      ],
      "weights": [
        {
          "name": "batch_normalization_18/beta",
          "shape": [
            96
          ],
          "dtype": "float32"
        },
        {
          "name": "batch_normalization_18/moving_mean",
          "shape": [
            96
          ],
          "dtype": "float32"
        },
        {
          "name": "batch_normalization_18/moving_variance",
          "shape": [
            96
          ],
          "dtype": "float32"
        }
      ]
    },
    {
      "paths": [
        "group11-shard1of1"
      ],
      "weights": [
        {
          "name": "batch_normalization_19/beta",
          "shape": [
            64
          ],
          "dtype": "float32"
        },
        {
          "name": "batch_normalization_19/moving_mean",
          "shape": [
            64
          ],
          "dtype": "float32"
        },
        {
          "name": "batch_normalization_19/moving_variance",
          "shape": [
            64
          ],
          "dtype": "float32"
        }
      ]
    },
    {
      "paths": [
        "group12-shard1of1"
      ],
      "weights": [
        {
          "name": "batch_normalization_2/beta",
          "shape": [
            32
          ],
          "dtype": "float32"
        },
        {
          "name": "batch_normalization_2/moving_mean",
          "shape": [
            32
          ],
          "dtype": "float32"
        },
        {
          "name": "batch_normalization_2/moving_variance",
          "shape": [
            32
          ],
          "dtype": "float32"
        }
      ]
    },
    {
      "paths": [
        "group13-shard1of1"
      ],
      "weights": [
        {
          "name": "batch_normalization_20/beta",
          "shape": [
            64
          ],
          "dtype": "float32"
        },
        {
          "name": "batch_normalization_20/moving_mean",
          "shape": [
            64
          ],
          "dtype": "float32"
        },
        {
          "name": "batch_normalization_20/moving_variance",
          "shape": [
            64
          ],
          "dtype": "float32"
        }
      ]
    },
    {
      "paths": [
        "group14-shard1of1"
      ],
      "weights": [
        {
          "name": "batch_normalization_21/beta",
          "shape": [
            48
          ],
          "dtype": "float32"
        },
        {
          "name": "batch_normalization_21/moving_mean",
          "shape": [
            48
          ],
          "dtype": "float32"
        },
        {
          "name": "batch_normalization_21/moving_variance",
          "shape": [
            48
          ],
          "dtype": "float32"
        }
      ]
    },
    {
      "paths": [
        "group15-shard1of1"
      ],
      "weights": [
        {
          "name": "batch_normalization_22/beta",
          "shape": [
            64
          ],
          "dtype": "float32"
        },
        {
          "name": "batch_normalization_22/moving_mean",
          "shape": [
            64
          ],
          "dtype": "float32"
        },
        {
          "name": "batch_normalization_22/moving_variance",
          "shape": [
            64
          ],
          "dtype": "float32"
        }
      ]
    },
    {
      "paths": [
        "group16-shard1of1"
      ],
      "weights": [
        {
          "name": "batch_normalization_23/beta",
          "shape": [
            64
          ],
          "dtype": "float32"
        },
        {
          "name": "batch_normalization_23/moving_mean",
          "shape": [
            64
          ],
          "dtype": "float32"
        },
        {
          "name": "batch_normalization_23/moving_variance",
          "shape": [
            64
          ],
          "dtype": "float32"
        }
      ]
    },
    {
      "paths": [
        "group17-shard1of1"
      ],
      "weights": [
        {
          "name": "batch_normalization_24/beta",
          "shape": [
            96
          ],
          "dtype": "float32"
        },
        {
          "name": "batch_normalization_24/moving_mean",
          "shape": [
            96
          ],
          "dtype": "float32"
        },
        {
          "name": "batch_normalization_24/moving_variance",
          "shape": [
            96
          ],
          "dtype": "float32"
        }
      ]
    },
    {
      "paths": [
        "group18-shard1of1"
      ],
      "weights": [
        {
          "name": "batch_normalization_25/beta",
          "shape": [
            96
          ],
          "dtype": "float32"
        },
        {
          "name": "batch_normalization_25/moving_mean",
          "shape": [
            96
          ],
          "dtype": "float32"
        },
        {
          "name": "batch_normalization_25/moving_variance",
          "shape": [
            96
          ],
          "dtype": "float32"
        }
      ]
    },
    {
      "paths": [
        "group19-shard1of1"
      ],
      "weights": [
        {
          "name": "batch_normalization_26/beta",
          "shape": [
            64
          ],
          "dtype": "float32"
        },
        {
          "name": "batch_normalization_26/moving_mean",
          "shape": [
            64
          ],
          "dtype": "float32"
        },
        {
          "name": "batch_normalization_26/moving_variance",
          "shape": [
            64
          ],
          "dtype": "float32"
        }
      ]
    },
    {
      "paths": [
        "group20-shard1of1"
      ],
      "weights": [
        {
          "name": "batch_normalization_27/beta",
          "shape": [
            384
          ],
          "dtype": "float32"
        },
        {
          "name": "batch_normalization_27/moving_mean",
          "shape": [
            384
          ],
          "dtype": "float32"
        },
        {
          "name": "batch_normalization_27/moving_variance",
          "shape": [
            384
          ],
          "dtype": "float32"
        }
      ]
    },
    {
      "paths": [
        "group21-shard1of1"
      ],
      "weights": [
        {
          "name": "batch_normalization_28/beta",
          "shape": [
            64
          ],
          "dtype": "float32"
        },
        {
          "name": "batch_normalization_28/moving_mean",
          "shape": [
            64
          ],
          "dtype": "float32"
        },
        {
          "name": "batch_normalization_28/moving_variance",
          "shape": [
            64
          ],
          "dtype": "float32"
        }
      ]
    },
    {
      "paths": [
        "group22-shard1of1"
      ],
      "weights": [
        {
          "name": "batch_normalization_29/beta",
          "shape": [
            96
          ],
          "dtype": "float32"
        },
        {
          "name": "batch_normalization_29/moving_mean",
          "shape": [
            96
          ],
          "dtype": "float32"
        },
        {
          "name": "batch_normalization_29/moving_variance",
          "shape": [
            96
          ],
          "dtype": "float32"
        }
      ]
    },
    {
      "paths": [
        "group23-shard1of1"
      ],
      "weights": [
        {
          "name": "batch_normalization_3/beta",
          "shape": [
            64
          ],
          "dtype": "float32"
        },
        {
          "name": "batch_normalization_3/moving_mean",
          "shape": [
            64
          ],
          "dtype": "float32"
        },
        {
          "name": "batch_normalization_3/moving_variance",
          "shape": [
            64
          ],
          "dtype": "float32"
        }
      ]
    },
    {
      "paths": [
        "group24-shard1of1"
      ],
      "weights": [
        {
          "name": "batch_normalization_30/beta",
          "shape": [
            96
          ],
          "dtype": "float32"
        },
        {
          "name": "batch_normalization_30/moving_mean",
          "shape": [
            96
          ],
          "dtype": "float32"
        },
        {
          "name": "batch_normalization_30/moving_variance",
          "shape": [
            96
          ],
          "dtype": "float32"
        }
      ]
    },
    {
      "paths": [
        "group25-shard1of1"
      ],
      "weights": [
        {
          "name": "batch_normalization_31/beta",
          "shape": [
            192
          ],
          "dtype": "float32"
        },
        {
          "name": "batch_normalization_31/moving_mean",
          "shape": [
            192
          ],
          "dtype": "float32"
        },
        {
          "name": "batch_normalization_31/moving_variance",
          "shape": [
            192
          ],
          "dtype": "float32"
        }
      ]
    },
    {
      "paths": [
        "group26-shard1of1"
      ],
      "weights": [
        {
          "name": "batch_normalization_32/beta",
          "shape": [
            128
          ],
          "dtype": "float32"
        },
        {
          "name": "batch_normalization_32/moving_mean",
          "shape": [
            128
          ],
          "dtype": "float32"
        },
        {
          "name": "batch_normalization_32/moving_variance",
          "shape": [
            128
          ],
          "dtype": "float32"
        }
      ]
    },
    {
      "paths": [
        "group27-shard1of1"
      ],
      "weights": [
        {
          "name": "batch_normalization_33/beta",
          "shape": [
            128
          ],
          "dtype": "float32"
        },
        {
          "name": "batch_normalization_33/moving_mean",
          "shape": [
            128
          ],
          "dtype": "float32"
        },
        {
          "name": "batch_normalization_33/moving_variance",
          "shape": [
            128
          ],
          "dtype": "float32"
        }
      ]
    },
    {
      "paths": [
        "group28-shard1of1"
      ],
      "weights": [
        {
          "name": "batch_normalization_34/beta",
          "shape": [
            192
          ],
          "dtype": "float32"
        },
        {
          "name": "batch_normalization_34/moving_mean",
          "shape": [
            192
          ],
          "dtype": "float32"
        },
        {
          "name": "batch_normalization_34/moving_variance",
          "shape": [
            192
          ],
          "dtype": "float32"
        }
      ]
    },
    {
      "paths": [
        "group29-shard1of1"
      ],
      "weights": [
        {
          "name": "batch_normalization_35/beta",
          "shape": [
            128
          ],
          "dtype": "float32"
        },
        {
          "name": "batch_normalization_35/moving_mean",
          "shape": [
            128
          ],
          "dtype": "float32"
        },
        {
          "name": "batch_normalization_35/moving_variance",
          "shape": [
            128
          ],
          "dtype": "float32"
        }
      ]
    },
    {
      "paths": [
        "group30-shard1of1"
      ],
      "weights": [
        {
          "name": "batch_normalization_36/beta",
          "shape": [
            128
          ],
          "dtype": "float32"
        },
        {
          "name": "batch_normalization_36/moving_mean",
          "shape": [
            128
          ],
          "dtype": "float32"
        },
        {
          "name": "batch_normalization_36/moving_variance",
          "shape": [
            128
          ],
          "dtype": "float32"
        }
      ]
    },
    {
      "paths": [
        "group31-shard1of1"
      ],
      "weights": [
        {
          "name": "batch_normalization_37/beta",
          "shape": [
            128
          ],
          "dtype": "float32"
        },
        {
          "name": "batch_normalization_37/moving_mean",
          "shape": [
            128
          ],
          "dtype": "float32"
        },
        {
          "name": "batch_normalization_37/moving_variance",
          "shape": [
            128
          ],
          "dtype": "float32"
        }
      ]
    },
    {
      "paths": [
        "group32-shard1of1"
      ],
      "weights": [
        {
          "name": "batch_normalization_38/beta",
          "shape": [
            128
          ],
          "dtype": "float32"
        },
        {
          "name": "batch_normalization_38/moving_mean",
          "shape": [
            128
          ],
          "dtype": "float32"
        },
        {
          "name": "batch_normalization_38/moving_variance",
          "shape": [
            128
          ],
          "dtype": "float32"
        }
      ]
    },
    {
      "paths": [
        "group33-shard1of1"
      ],
      "weights": [
        {
          "name": "batch_normalization_39/beta",
          "shape": [
            192
          ],
          "dtype": "float32"
        },
        {
          "name": "batch_normalization_39/moving_mean",
          "shape": [
            192
          ],
          "dtype": "float32"
        },
        {
          "name": "batch_normalization_39/moving_variance",
          "shape": [
            192
          ],
          "dtype": "float32"
        }
      ]
    },
    {
      "paths": [
        "group34-shard1of1"
      ],
      "weights": [
        {
          "name": "batch_normalization_4/beta",
          "shape": [
            80
          ],
          "dtype": "float32"
        },
        {
          "name": "batch_normalization_4/moving_mean",
          "shape": [
            80
          ],
          "dtype": "float32"
        },
        {
          "name": "batch_normalization_4/moving_variance",
          "shape": [
            80
          ],
          "dtype": "float32"
        }
      ]
    },
    {
      "paths": [
        "group35-shard1of1"
      ],
      "weights": [
        {
          "name": "batch_normalization_40/beta",
          "shape": [
            192
          ],
          "dtype": "float32"
        },
        {
          "name": "batch_normalization_40/moving_mean",
          "shape": [
            192
          ],
          "dtype": "float32"
        },
        {
          "name": "batch_normalization_40/moving_variance",
          "shape": [
            192
          ],
          "dtype": "float32"
        }
      ]
    },
    {
      "paths": [
        "group36-shard1of1"
      ],
      "weights": [
        {
          "name": "batch_normalization_41/beta",
          "shape": [
            192
          ],
          "dtype": "float32"
        },
        {
          "name": "batch_normalization_41/moving_mean",
          "shape": [
            192
          ],
          "dtype": "float32"
        },
        {
          "name": "batch_normalization_41/moving_variance",
          "shape": [
            192
          ],
          "dtype": "float32"
        }
      ]
    },
    {
      "paths": [
        "group37-shard1of1"
      ],
      "weights": [
        {
          "name": "batch_normalization_42/beta",
          "shape": [
            160
          ],
          "dtype": "float32"
        },
        {
          "name": "batch_normalization_42/moving_mean",
          "shape": [
            160
          ],
          "dtype": "float32"
        },
        {
          "name": "batch_normalization_42/moving_variance",
          "shape": [
            160
          ],
          "dtype": "float32"
        }
      ]
    },
    {
      "paths": [
        "group38-shard1of1"
      ],
      "weights": [
        {
          "name": "batch_normalization_43/beta",
          "shape": [
            160
          ],
          "dtype": "float32"
        },
        {
          "name": "batch_normalization_43/moving_mean",
          "shape": [
            160
          ],
          "dtype": "float32"
        },
        {
          "name": "batch_normalization_43/moving_variance",
          "shape": [
            160
          ],
          "dtype": "float32"
        }
      ]
    },
    {
      "paths": [
        "group39-shard1of1"
      ],
      "weights": [
        {
          "name": "batch_normalization_44/beta",
          "shape": [
            192
          ],
          "dtype": "float32"
        },
        {
          "name": "batch_normalization_44/moving_mean",
          "shape": [
            192
          ],
          "dtype": "float32"
        },
        {
          "name": "batch_normalization_44/moving_variance",
          "shape": [
            192
          ],
          "dtype": "float32"
        }
      ]
    },
    {
      "paths": [
        "group40-shard1of1"
      ],
      "weights": [
        {
          "name": "batch_normalization_45/beta",
          "shape": [
            160
          ],
          "dtype": "float32"
        },
        {
          "name": "batch_normalization_45/moving_mean",
          "shape": [
            160
          ],
          "dtype": "float32"
        },
        {
          "name": "batch_normalization_45/moving_variance",
          "shape": [
            160
          ],
          "dtype": "float32"
        }
      ]
    },
    {
      "paths": [
        "group41-shard1of1"
      ],
      "weights": [
        {
          "name": "batch_normalization_46/beta",
          "shape": [
            160
          ],
          "dtype": "float32"
        },
        {
          "name": "batch_normalization_46/moving_mean",
          "shape": [
            160
          ],
          "dtype": "float32"
        },
        {
          "name": "batch_normalization_46/moving_variance",
          "shape": [
            160
          ],
          "dtype": "float32"
        }
      ]
    },
    {
      "paths": [
        "group42-shard1of1"
      ],
      "weights": [
        {
          "name": "batch_normalization_47/beta",
          "shape": [
            160
          ],
          "dtype": "float32"
        },
        {
          "name": "batch_normalization_47/moving_mean",
          "shape": [
            160
          ],
          "dtype": "float32"
        },
        {
          "name": "batch_normalization_47/moving_variance",
          "shape": [
            160
          ],
          "dtype": "float32"
        }
      ]
    },
    {
      "paths": [
        "group43-shard1of1"
      ],
      "weights": [
        {
          "name": "batch_normalization_48/beta",
          "shape": [
            160
          ],
          "dtype": "float32"
        },
        {
          "name": "batch_normalization_48/moving_mean",
          "shape": [
            160
          ],
          "dtype": "float32"
        },
        {
          "name": "batch_normalization_48/moving_variance",
          "shape": [
            160
          ],
          "dtype": "float32"
        }
      ]
    },
    {
      "paths": [
        "group44-shard1of1"
      ],
      "weights": [
        {
          "name": "batch_normalization_49/beta",
          "shape": [
            192
          ],
          "dtype": "float32"
        },
        {
          "name": "batch_normalization_49/moving_mean",
          "shape": [
            192
          ],
          "dtype": "float32"
        },
        {
          "name": "batch_normalization_49/moving_variance",
          "shape": [
            192
          ],
          "dtype": "float32"
        }
      ]
    },
    {
      "paths": [
        "group45-shard1of1"
      ],
      "weights": [
        {
          "name": "batch_normalization_5/beta",
          "shape": [
            192
          ],
          "dtype": "float32"
        },
        {
          "name": "batch_normalization_5/moving_mean",
          "shape": [
            192
          ],
          "dtype": "float32"
        },
        {
          "name": "batch_normalization_5/moving_variance",
          "shape": [
            192
          ],
          "dtype": "float32"
        }
      ]
    },
    {
      "paths": [
        "group46-shard1of1"
      ],
      "weights": [
        {
          "name": "batch_normalization_50/beta",
          "shape": [
            192
          ],
          "dtype": "float32"
        },
        {
          "name": "batch_normalization_50/moving_mean",
          "shape": [
            192
          ],
          "dtype": "float32"
        },
        {
          "name": "batch_normalization_50/moving_variance",
          "shape": [
            192
          ],
          "dtype": "float32"
        }
      ]
    },
    {
      "paths": [
        "group47-shard1of1"
      ],
      "weights": [
        {
          "name": "batch_normalization_51/beta",
          "shape": [
            192
          ],
          "dtype": "float32"
        },
        {
          "name": "batch_normalization_51/moving_mean",
          "shape": [
            192
          ],
          "dtype": "float32"
        },
        {
          "name": "batch_normalization_51/moving_variance",
          "shape": [
            192
          ],
          "dtype": "float32"
        }
      ]
    },
    {
      "paths": [
        "group48-shard1of1"
      ],
      "weights": [
        {
          "name": "batch_normalization_52/beta",
          "shape": [
            160
          ],
          "dtype": "float32"
        },
        {
          "name": "batch_normalization_52/moving_mean",
          "shape": [
            160
          ],
          "dtype": "float32"
        },
        {
          "name": "batch_normalization_52/moving_variance",
          "shape": [
            160
          ],
          "dtype": "float32"
        }
      ]
    },
    {
      "paths": [
        "group49-shard1of1"
      ],
      "weights": [
        {
          "name": "batch_normalization_53/beta",
          "shape": [
            160
          ],
          "dtype": "float32"
        },
        {
          "name": "batch_normalization_53/moving_mean",
          "shape": [
            160
          ],
          "dtype": "float32"
        },
        {
          "name": "batch_normalization_53/moving_variance",
          "shape": [
            160
          ],
          "dtype": "float32"
        }
      ]
    },
    {
      "paths": [
        "group50-shard1of1"
      ],
      "weights": [
        {
          "name": "batch_normalization_54/beta",
          "shape": [
            192
          ],
          "dtype": "float32"
        },
        {
          "name": "batch_normalization_54/moving_mean",
          "shape": [
            192
          ],
          "dtype": "float32"
        },
        {
          "name": "batch_normalization_54/moving_variance",
          "shape": [
            192
          ],
          "dtype": "float32"
        }
      ]
    },
    {
      "paths": [
        "group51-shard1of1"
      ],
      "weights": [
        {
          "name": "batch_normalization_55/beta",
          "shape": [
            160
          ],
          "dtype": "float32"
        },
        {
          "name": "batch_normalization_55/moving_mean",
          "shape": [
            160
          ],
          "dtype": "float32"
        },
        {
          "name": "batch_normalization_55/moving_variance",
          "shape": [
            160
          ],
          "dtype": "float32"
        }
      ]
    },
    {
      "paths": [
        "group52-shard1of1"
      ],
      "weights": [
        {
          "name": "batch_normalization_56/beta",
          "shape": [
            160
          ],
          "dtype": "float32"
        },
        {
          "name": "batch_normalization_56/moving_mean",
          "shape": [
            160
          ],
          "dtype": "float32"
        },
        {
          "name": "batch_normalization_56/moving_variance",
          "shape": [
            160
          ],
          "dtype": "float32"
        }
      ]
    },
    {
      "paths": [
        "group53-shard1of1"
      ],
      "weights": [
        {
          "name": "batch_normalization_57/beta",
          "shape": [
            160
          ],
          "dtype": "float32"
        },
        {
          "name": "batch_normalization_57/moving_mean",
          "shape": [
            160
          ],
          "dtype": "float32"
        },
        {
          "name": "batch_normalization_57/moving_variance",
          "shape": [
            160
          ],
          "dtype": "float32"
        }
      ]
    },
    {
      "paths": [
        "group54-shard1of1"
      ],
      "weights": [
        {
          "name": "batch_normalization_58/beta",
          "shape": [
            160
          ],
          "dtype": "float32"
        },
        {
          "name": "batch_normalization_58/moving_mean",
          "shape": [
            160
          ],
          "dtype": "float32"
        },
        {
          "name": "batch_normalization_58/moving_variance",
          "shape": [
            160
          ],
          "dtype": "float32"
        }
      ]
    },
    {
      "paths": [
        "group55-shard1of1"
      ],
      "weights": [
        {
          "name": "batch_normalization_59/beta",
          "shape": [
            192
          ],
          "dtype": "float32"
        },
        {
          "name": "batch_normalization_59/moving_mean",
          "shape": [
            192
          ],
          "dtype": "float32"
        },
        {
          "name": "batch_normalization_59/moving_variance",
          "shape": [
            192
          ],
          "dtype": "float32"
        }
      ]
    },
    {
      "paths": [
        "group56-shard1of1"
      ],
      "weights": [
        {
          "name": "batch_normalization_6/beta",
          "shape": [
            64
          ],
          "dtype": "float32"
        },
        {
          "name": "batch_normalization_6/moving_mean",
          "shape": [
            64
          ],
          "dtype": "float32"
        },
        {
          "name": "batch_normalization_6/moving_variance",
          "shape": [
            64
          ],
          "dtype": "float32"
        }
      ]
    },
    {
      "paths": [
        "group57-shard1of1"
      ],
      "weights": [
        {
          "name": "batch_normalization_60/beta",
          "shape": [
            192
          ],
          "dtype": "float32"
        },
        {
          "name": "batch_normalization_60/moving_mean",
          "shape": [
            192
          ],
          "dtype": "float32"
        },
        {
          "name": "batch_normalization_60/moving_variance",
          "shape": [
            192
          ],
          "dtype": "float32"
        }
      ]
    },
    {
      "paths": [
        "group58-shard1of1"
      ],
      "weights": [
        {
          "name": "batch_normalization_61/beta",
          "shape": [
            192
          ],
          "dtype": "float32"
        },
        {
          "name": "batch_normalization_61/moving_mean",
          "shape": [
            192
          ],
          "dtype": "float32"
        },
        {
          "name": "batch_normalization_61/moving_variance",
          "shape": [
            192
          ],
          "dtype": "float32"
        }
      ]
    },
    {
      "paths": [
        "group59-shard1of1"
      ],
      "weights": [
        {
          "name": "batch_normalization_62/beta",
          "shape": [
            192
          ],
          "dtype": "float32"
        },
        {
          "name": "batch_normalization_62/moving_mean",
          "shape": [
            192
          ],
          "dtype": "float32"
        },
        {
          "name": "batch_normalization_62/moving_variance",
          "shape": [
            192
          ],
          "dtype": "float32"
        }
      ]
    },
    {
      "paths": [
        "group60-shard1of1"
      ],
      "weights": [
        {
          "name": "batch_normalization_63/beta",
          "shape": [
            192
          ],
          "dtype": "float32"
        },
        {
          "name": "batch_normalization_63/moving_mean",
          "shape": [
            192
          ],
          "dtype": "float32"
        },
        {
          "name": "batch_normalization_63/moving_variance",
          "shape": [
            192
          ],
          "dtype": "float32"
        }
      ]
    },
    {
      "paths": [
        "group61-shard1of1"
      ],
      "weights": [
        {
          "name": "batch_normalization_64/beta",
          "shape": [
            192
          ],
          "dtype": "float32"
        },
        {
          "name": "batch_normalization_64/moving_mean",
          "shape": [
            192
          ],
          "dtype": "float32"
        },
        {
          "name": "batch_normalization_64/moving_variance",
          "shape": [
            192
          ],
          "dtype": "float32"
        }
      ]
    },
    {
      "paths": [
        "group62-shard1of1"
      ],
      "weights": [
        {
          "name": "batch_normalization_65/beta",
          "shape": [
            192
          ],
          "dtype": "float32"
        },
        {
          "name": "batch_normalization_65/moving_mean",
          "shape": [
            192
          ],
          "dtype": "float32"
        },
        {
          "name": "batch_normalization_65/moving_variance",
          "shape": [
            192
          ],
          "dtype": "float32"
        }
      ]
    },
    {
      "paths": [
        "group63-shard1of1"
      ],
      "weights": [
        {
          "name": "batch_normalization_66/beta",
          "shape": [
            192
          ],
          "dtype": "float32"
        },
        {
          "name": "batch_normalization_66/moving_mean",
          "shape": [
            192
          ],
          "dtype": "float32"
        },
        {
          "name": "batch_normalization_66/moving_variance",
          "shape": [
            192
          ],
          "dtype": "float32"
        }
      ]
    },
    {
      "paths": [
        "group64-shard1of1"
      ],
      "weights": [
        {
          "name": "batch_normalization_67/beta",
          "shape": [
            192
          ],
          "dtype": "float32"
        },
        {
          "name": "batch_normalization_67/moving_mean",
          "shape": [
            192
          ],
          "dtype": "float32"
        },
        {
          "name": "batch_normalization_67/moving_variance",
          "shape": [
            192
          ],
          "dtype": "float32"
        }
      ]
    },
    {
      "paths": [
        "group65-shard1of1"
      ],
      "weights": [
        {
          "name": "batch_normalization_68/beta",
          "shape": [
            192
          ],
          "dtype": "float32"
        },
        {
          "name": "batch_normalization_68/moving_mean",
          "shape": [
            192
          ],
          "dtype": "float32"
        },
        {
          "name": "batch_normalization_68/moving_variance",
          "shape": [
            192
          ],
          "dtype": "float32"
        }
      ]
    },
    {
      "paths": [
        "group66-shard1of1"
      ],
      "weights": [
        {
          "name": "batch_normalization_69/beta",
          "shape": [
            192
          ],
          "dtype": "float32"
        },
        {
          "name": "batch_normalization_69/moving_mean",
          "shape": [
            192
          ],
          "dtype": "float32"
        },
        {
          "name": "batch_normalization_69/moving_variance",
          "shape": [
            192
          ],
          "dtype": "float32"
        }
      ]
    },
    {
      "paths": [
        "group67-shard1of1"
      ],
      "weights": [
        {
          "name": "batch_normalization_7/beta",
          "shape": [
            48
          ],
          "dtype": "float32"
        },
        {
          "name": "batch_normalization_7/moving_mean",
          "shape": [
            48
          ],
          "dtype": "float32"
        },
        {
          "name": "batch_normalization_7/moving_variance",
          "shape": [
            48
          ],
          "dtype": "float32"
        }
      ]
    },
    {
      "paths": [
        "group68-shard1of1"
      ],
      "weights": [
        {
          "name": "batch_normalization_70/beta",
          "shape": [
            192
          ],
          "dtype": "float32"
        },
        {
          "name": "batch_normalization_70/moving_mean",
          "shape": [
            192
          ],
          "dtype": "float32"
        },
        {
          "name": "batch_normalization_70/moving_variance",
          "shape": [
            192
          ],
          "dtype": "float32"
        }
      ]
    },
    {
      "paths": [
        "group69-shard1of1"
      ],
      "weights": [
        {
          "name": "batch_normalization_71/beta",
          "shape": [
            192
          ],
          "dtype": "float32"
        },
        {
          "name": "batch_normalization_71/moving_mean",
          "shape": [
            192
          ],
          "dtype": "float32"
        },
        {
          "name": "batch_normalization_71/moving_variance",
          "shape": [
            192
          ],
          "dtype": "float32"
        }
      ]
    },
    {
      "paths": [
        "group70-shard1of1"
      ],
      "weights": [
        {
          "name": "batch_normalization_72/beta",
          "shape": [
            320
          ],
          "dtype": "float32"
        },
        {
          "name": "batch_normalization_72/moving_mean",
          "shape": [
            320
          ],
          "dtype": "float32"
        },
        {
          "name": "batch_normalization_72/moving_variance",
          "shape": [
            320
          ],
          "dtype": "float32"
        }
      ]
    },
    {
      "paths": [
        "group71-shard1of1"
      ],
      "weights": [
        {
          "name": "batch_normalization_73/beta",
          "shape": [
            192
          ],
          "dtype": "float32"
        },
        {
          "name": "batch_normalization_73/moving_mean",
          "shape": [
            192
          ],
          "dtype": "float32"
        },
        {
          "name": "batch_normalization_73/moving_variance",
          "shape": [
            192
          ],
          "dtype": "float32"
        }
      ]
    },
    {
      "paths": [
        "group72-shard1of1"
      ],
      "weights": [
        {
          "name": "batch_normalization_74/beta",
          "shape": [
            192
          ],
          "dtype": "float32"
        },
        {
          "name": "batch_normalization_74/moving_mean",
          "shape": [
            192
          ],
          "dtype": "float32"
        },
        {
          "name": "batch_normalization_74/moving_variance",
          "shape": [
            192
          ],
          "dtype": "float32"
        }
      ]
    },
    {
      "paths": [
        "group73-shard1of1"
      ],
      "weights": [
        {
          "name": "batch_normalization_75/beta",
          "shape": [
            192
          ],
          "dtype": "float32"
        },
        {
          "name": "batch_normalization_75/moving_mean",
          "shape": [
            192
          ],
          "dtype": "float32"
        },
        {
          "name": "batch_normalization_75/moving_variance",
          "shape": [
            192
          ],
          "dtype": "float32"
        }
      ]
    },
    {
      "paths": [
        "group74-shard1of1"
      ],
      "weights": [
        {
          "name": "batch_normalization_76/beta",
          "shape": [
            192
          ],
          "dtype": "float32"
        },
        {
          "name": "batch_normalization_76/moving_mean",
          "shape": [
            192
          ],
          "dtype": "float32"
        },
        {
          "name": "batch_normalization_76/moving_variance",
          "shape": [
            192
          ],
          "dtype": "float32"
        }
      ]
    },
    {
      "paths": [
        "group75-shard1of1"
      ],
      "weights": [
        {
          "name": "batch_normalization_77/beta",
          "shape": [
            320
          ],
          "dtype": "float32"
        },
        {
          "name": "batch_normalization_77/moving_mean",
          "shape": [
            320
          ],
          "dtype": "float32"
        },
        {
          "name": "batch_normalization_77/moving_variance",
          "shape": [
            320
          ],
          "dtype": "float32"
        }
      ]
    },
    {
      "paths": [
        "group76-shard1of1"
      ],
      "weights": [
        {
          "name": "batch_normalization_78/beta",
          "shape": [
            384
          ],
          "dtype": "float32"
        },
        {
          "name": "batch_normalization_78/moving_mean",
          "shape": [
            384
          ],
          "dtype": "float32"
        },
        {
          "name": "batch_normalization_78/moving_variance",
          "shape": [
            384
          ],
          "dtype": "float32"
        }
      ]
    },
    {
      "paths": [
        "group77-shard1of1"
      ],
      "weights": [
        {
          "name": "batch_normalization_79/beta",
          "shape": [
            384
          ],
          "dtype": "float32"
        },
        {
          "name": "batch_normalization_79/moving_mean",
          "shape": [
            384
          ],
          "dtype": "float32"
        },
        {
          "name": "batch_normalization_79/moving_variance",
          "shape": [
            384
          ],
          "dtype": "float32"
        }
      ]
    },
    {
      "paths": [
        "group78-shard1of1"
      ],
      "weights": [
        {
          "name": "batch_normalization_8/beta",
          "shape": [
            64
          ],
          "dtype": "float32"
        },
        {
          "name": "batch_normalization_8/moving_mean",
          "shape": [
            64
          ],
          "dtype": "float32"
        },
        {
          "name": "batch_normalization_8/moving_variance",
          "shape": [
            64
          ],
          "dtype": "float32"
        }
      ]
    },
    {
      "paths": [
        "group79-shard1of1"
      ],
      "weights": [
        {
          "name": "batch_normalization_80/beta",
          "shape": [
            384
          ],
          "dtype": "float32"
        },
        {
          "name": "batch_normalization_80/moving_mean",
          "shape": [
            384
          ],
          "dtype": "float32"
        },
        {
          "name": "batch_normalization_80/moving_variance",
          "shape": [
            384
          ],
          "dtype": "float32"
        }
      ]
    },
    {
      "paths": [
        "group80-shard1of1"
      ],
      "weights": [
        {
          "name": "batch_normalization_81/beta",
          "shape": [
            448
          ],
          "dtype": "float32"
        },
        {
          "name": "batch_normalization_81/moving_mean",
          "shape": [
            448
          ],
          "dtype": "float32"
        },
        {
          "name": "batch_normalization_81/moving_variance",
          "shape": [
            448
          ],
          "dtype": "float32"
        }
      ]
    },
    {
      "paths": [
        "group81-shard1of1"
      ],
      "weights": [
        {
          "name": "batch_normalization_82/beta",
          "shape": [
            384
          ],
          "dtype": "float32"
        },
        {
          "name": "batch_normalization_82/moving_mean",
          "shape": [
            384
          ],
          "dtype": "float32"
        },
        {
          "name": "batch_normalization_82/moving_variance",
          "shape": [
            384
          ],
          "dtype": "float32"
        }
      ]
    },
    {
      "paths": [
        "group82-shard1of1"
      ],
      "weights": [
        {
          "name": "batch_normalization_83/beta",
          "shape": [
            384
          ],
          "dtype": "float32"
        },
        {
          "name": "batch_normalization_83/moving_mean",
          "shape": [
            384
          ],
          "dtype": "float32"
        },
        {
          "name": "batch_normalization_83/moving_variance",
          "shape": [
            384
          ],
          "dtype": "float32"
        }
      ]
    },
    {
      "paths": [
        "group83-shard1of1"
      ],
      "weights": [
        {
          "name": "batch_normalization_84/beta",
          "shape": [
            384
          ],
          "dtype": "float32"
        },
        {
          "name": "batch_normalization_84/moving_mean",
          "shape": [
            384
          ],
          "dtype": "float32"
        },
        {
          "name": "batch_normalization_84/moving_variance",
          "shape": [
            384
          ],
          "dtype": "float32"
        }
      ]
    },
    {
      "paths": [
        "group84-shard1of1"
      ],
      "weights": [
        {
          "name": "batch_normalization_85/beta",
          "shape": [
            192
          ],
          "dtype": "float32"
        },
        {
          "name": "batch_normalization_85/moving_mean",
          "shape": [
            192
          ],
          "dtype": "float32"
        },
        {
          "name": "batch_normalization_85/moving_variance",
          "shape": [
            192
          ],
          "dtype": "float32"
        }
      ]
    },
    {
      "paths": [
        "group85-shard1of1"
      ],
      "weights": [
        {
          "name": "batch_normalization_86/beta",
          "shape": [
            320
          ],
          "dtype": "float32"
        },
        {
          "name": "batch_normalization_86/moving_mean",
          "shape": [
            320
          ],
          "dtype": "float32"
        },
        {
          "name": "batch_normalization_86/moving_variance",
          "shape": [
            320
          ],
          "dtype": "float32"
        }
      ]
    },
    {
      "paths": [
        "group86-shard1of1"
      ],
      "weights": [
        {
          "name": "batch_normalization_87/beta",
          "shape": [
            384
          ],
          "dtype": "float32"
        },
        {
          "name": "batch_normalization_87/moving_mean",
          "shape": [
            384
          ],
          "dtype": "float32"
        },
        {
          "name": "batch_normalization_87/moving_variance",
          "shape": [
            384
          ],
          "dtype": "float32"
        }
      ]
    },
    {
      "paths": [
        "group87-shard1of1"
      ],
      "weights": [
        {
          "name": "batch_normalization_88/beta",
          "shape": [
            384
          ],
          "dtype": "float32"
        },
        {
          "name": "batch_normalization_88/moving_mean",
          "shape": [
            384
          ],
          "dtype": "float32"
        },
        {
          "name": "batch_normalization_88/moving_variance",
          "shape": [
            384
          ],
          "dtype": "float32"
        }
      ]
    },
    {
      "paths": [
        "group88-shard1of1"
      ],
      "weights": [
        {
          "name": "batch_normalization_89/beta",
          "shape": [
            384
          ],
          "dtype": "float32"
        },
        {
          "name": "batch_normalization_89/moving_mean",
          "shape": [
            384
          ],
          "dtype": "float32"
        },
        {
          "name": "batch_normalization_89/moving_variance",
          "shape": [
            384
          ],
          "dtype": "float32"
        }
      ]
    },
    {
      "paths": [
        "group89-shard1of1"
      ],
      "weights": [
        {
          "name": "batch_normalization_9/beta",
          "shape": [
            64
          ],
          "dtype": "float32"
        },
        {
          "name": "batch_normalization_9/moving_mean",
          "shape": [
            64
          ],
          "dtype": "float32"
        },
        {
          "name": "batch_normalization_9/moving_variance",
          "shape": [
            64
          ],
          "dtype": "float32"
        }
      ]
    },
    {
      "paths": [
        "group90-shard1of1"
      ],
      "weights": [
        {
          "name": "batch_normalization_90/beta",
          "shape": [
            448
          ],
          "dtype": "float32"
        },
        {
          "name": "batch_normalization_90/moving_mean",
          "shape": [
            448
          ],
          "dtype": "float32"
        },
        {
          "name": "batch_normalization_90/moving_variance",
          "shape": [
            448
          ],
          "dtype": "float32"
        }
      ]
    },
    {
      "paths": [
        "group91-shard1of1"
      ],
      "weights": [
        {
          "name": "batch_normalization_91/beta",
          "shape": [
            384
          ],
          "dtype": "float32"
        },
        {
          "name": "batch_normalization_91/moving_mean",
          "shape": [
            384
          ],
          "dtype": "float32"
        },
        {
          "name": "batch_normalization_91/moving_variance",
          "shape": [
            384
          ],
          "dtype": "float32"
        }
      ]
    },
    {
      "paths": [
        "group92-shard1of1"
      ],
      "weights": [
        {
          "name": "batch_normalization_92/beta",
          "shape": [
            384
          ],
          "dtype": "float32"
        },
        {
          "name": "batch_normalization_92/moving_mean",
          "shape": [
            384
          ],
          "dtype": "float32"
        },
        {
          "name": "batch_normalization_92/moving_variance",
          "shape": [
            384
          ],
          "dtype": "float32"
        }
      ]
    },
    {
      "paths": [
        "group93-shard1of1"
      ],
      "weights": [
        {
          "name": "batch_normalization_93/beta",
          "shape": [
            384
          ],
          "dtype": "float32"
        },
        {
          "name": "batch_normalization_93/moving_mean",
          "shape": [
            384
          ],
          "dtype": "float32"
        },
        {
          "name": "batch_normalization_93/moving_variance",
          "shape": [
            384
          ],
          "dtype": "float32"
        }
      ]
    },
    {
      "paths": [
        "group94-shard1of1"
      ],
      "weights": [
        {
          "name": "batch_normalization_94/beta",
          "shape": [
            192
          ],
          "dtype": "float32"
        },
        {
          "name": "batch_normalization_94/moving_mean",
          "shape": [
            192
          ],
          "dtype": "float32"
        },
        {
          "name": "batch_normalization_94/moving_variance",
          "shape": [
            192
          ],
          "dtype": "float32"
        }
      ]
    },
    {
      "paths": [
        "group95-shard1of1"
      ],
      "weights": [
        {
          "name": "conv2d_1/kernel",
          "shape": [
            3,
            3,
            3,
            32
          ],
          "dtype": "float32"
        }
      ]
    },
    {
      "paths": [
        "group96-shard1of1"
      ],
      "weights": [
        {
          "name": "conv2d_10/kernel",
          "shape": [
            3,
            3,
            64,
            96
          ],
          "dtype": "float32"
        }
      ]
    },
    {
      "paths": [
        "group97-shard1of1"
      ],
      "weights": [
        {
          "name": "conv2d_11/kernel",
          "shape": [
            3,
            3,
            96,
            96
          ],
          "dtype": "float32"
        }
      ]
    },
    {
      "paths": [
        "group98-shard1of1"
      ],
      "weights": [
        {
          "name": "conv2d_12/kernel",
          "shape": [
            1,
            1,
            192,
            32
          ],
          "dtype": "float32"
        }
      ]
    },
    {
      "paths": [
        "group99-shard1of1"
      ],
      "weights": [
        {
          "name": "conv2d_13/kernel",
          "shape": [
            1,
            1,
            256,
            64
          ],
          "dtype": "float32"
        }
      ]
    },
    {
      "paths": [
        "group100-shard1of1"
      ],
      "weights": [
        {
          "name": "conv2d_14/kernel",
          "shape": [
            1,
            1,
            256,
            48
          ],
          "dtype": "float32"
        }
      ]
    },
    {
      "paths": [
        "group101-shard1of1"
      ],
      "weights": [
        {
          "name": "conv2d_15/kernel",
          "shape": [
            5,
            5,
            48,
            64
          ],
          "dtype": "float32"
        }
      ]
    },
    {
      "paths": [
        "group102-shard1of1"
      ],
      "weights": [
        {
          "name": "conv2d_16/kernel",
          "shape": [
            1,
            1,
            256,
            64
          ],
          "dtype": "float32"
        }
      ]
    },
    {
      "paths": [
        "group103-shard1of1"
      ],
      "weights": [
        {
          "name": "conv2d_17/kernel",
          "shape": [
            3,
            3,
            64,
            96
          ],
          "dtype": "float32"
        }
      ]
    },
    {
      "paths": [
        "group104-shard1of1"
      ],
      "weights": [
        {
          "name": "conv2d_18/kernel",
          "shape": [
            3,
            3,
            96,
            96
          ],
          "dtype": "float32"
        }
      ]
    },
    {
      "paths": [
        "group105-shard1of1"
      ],
      "weights": [
        {
          "name": "conv2d_19/kernel",
          "shape": [
            1,
            1,
            256,
            64
          ],
          "dtype": "float32"
        }
      ]
    },
    {
      "paths": [
        "group106-shard1of1"
      ],
      "weights": [
        {
          "name": "conv2d_2/kernel",
          "shape": [
            3,
            3,
            32,
            32
          ],
          "dtype": "float32"
        }
      ]
    },
    {
      "paths": [
        "group107-shard1of1"
      ],
      "weights": [
        {
          "name": "conv2d_20/kernel",
          "shape": [
            1,
            1,
            288,
            64
          ],
          "dtype": "float32"
        }
      ]
    },
    {
      "paths": [
        "group108-shard1of1"
      ],
      "weights": [
        {
          "name": "conv2d_21/kernel",
          "shape": [
            1,
            1,
            288,
            48
          ],
          "dtype": "float32"
        }
      ]
    },
    {
      "paths": [
        "group109-shard1of1"
      ],
      "weights": [
        {
          "name": "conv2d_22/kernel",
          "shape": [
            5,
            5,
            48,
            64
          ],
          "dtype": "float32"
        }
      ]
    },
    {
      "paths": [
        "group110-shard1of1"
      ],
      "weights": [
        {
          "name": "conv2d_23/kernel",
          "shape": [
            1,
            1,
            288,
            64
          ],
          "dtype": "float32"
        }
      ]
    },
    {
      "paths": [
        "group111-shard1of1"
      ],
      "weights": [
        {
          "name": "conv2d_24/kernel",
          "shape": [
            3,
            3,
            64,
            96
          ],
          "dtype": "float32"
        }
      ]
    },
    {
      "paths": [
        "group112-shard1of1"
      ],
      "weights": [
        {
          "name": "conv2d_25/kernel",
          "shape": [
            3,
            3,
            96,
            96
          ],
          "dtype": "float32"
        }
      ]
    },
    {
      "paths": [
        "group113-shard1of1"
      ],
      "weights": [
        {
          "name": "conv2d_26/kernel",
          "shape": [
            1,
            1,
            288,
            64
          ],
          "dtype": "float32"
        }
      ]
    },
    {
      "paths": [
        "group114-shard1of1"
      ],
      "weights": [
        {
          "name": "conv2d_27/kernel",
          "shape": [
            3,
            3,
            288,
            384
          ],
          "dtype": "float32"
        }
      ]
    },
    {
      "paths": [
        "group115-shard1of1"
      ],
      "weights": [
        {
          "name": "conv2d_28/kernel",
          "shape": [
            1,
            1,
            288,
            64
          ],
          "dtype": "float32"
        }
      ]
    },
    {
      "paths": [
        "group116-shard1of1"
      ],
      "weights": [
        {
          "name": "conv2d_29/kernel",
          "shape": [
            3,
            3,
            64,
            96
          ],
          "dtype": "float32"
        }
      ]
    },
    {
      "paths": [
        "group117-shard1of1"
      ],
      "weights": [
        {
          "name": "conv2d_3/kernel",
          "shape": [
            3,
            3,
            32,
            64
          ],
          "dtype": "float32"
        }
      ]
    },
    {
      "paths": [
        "group118-shard1of1"
      ],
      "weights": [
        {
          "name": "conv2d_30/kernel",
          "shape": [
            3,
            3,
            96,
            96
          ],
          "dtype": "float32"
        }
      ]
    },
    {
      "paths": [
        "group119-shard1of1"
      ],
      "weights": [
        {
          "name": "conv2d_31/kernel",
          "shape": [
            1,
            1,
            768,
            192
          ],
          "dtype": "float32"
        }
      ]
    },
    {
      "paths": [
        "group120-shard1of1"
      ],
      "weights": [
        {
          "name": "conv2d_32/kernel",
          "shape": [
            1,
            1,
            768,
            128
          ],
          "dtype": "float32"
        }
      ]
    },
    {
      "paths": [
        "group121-shard1of1"
      ],
      "weights": [
        {
          "name": "conv2d_33/kernel",
          "shape": [
            1,
            7,
            128,
            128
          ],
          "dtype": "float32"
        }
      ]
    },
    {
      "paths": [
        "group122-shard1of1"
      ],
      "weights": [
        {
          "name": "conv2d_34/kernel",
          "shape": [
            7,
            1,
            128,
            192
          ],
          "dtype": "float32"
        }
      ]
    },
    {
      "paths": [
        "group123-shard1of1"
      ],
      "weights": [
        {
          "name": "conv2d_35/kernel",
          "shape": [
            1,
            1,
            768,
            128
          ],
          "dtype": "float32"
        }
      ]
    },
    {
      "paths": [
        "group124-shard1of1"
      ],
      "weights": [
        {
          "name": "conv2d_36/kernel",
          "shape": [
            7,
            1,
            128,
            128
          ],
          "dtype": "float32"
        }
      ]
    },
    {
      "paths": [
        "group125-shard1of1"
      ],
      "weights": [
        {
          "name": "conv2d_37/kernel",
          "shape": [
            1,
            7,
            128,
            128
          ],
          "dtype": "float32"
        }
      ]
    },
    {
      "paths": [
        "group126-shard1of1"
      ],
      "weights": [
        {
          "name": "conv2d_38/kernel",
          "shape": [
            7,
            1,
            128,
            128
          ],
          "dtype": "float32"
        }
      ]
    },
    {
      "paths": [
        "group127-shard1of1"
      ],
      "weights": [
        {
          "name": "conv2d_39/kernel",
          "shape": [
            1,
            7,
            128,
            192
          ],
          "dtype": "float32"
        }
      ]
    },
    {
      "paths": [
        "group128-shard1of1"
      ],
      "weights": [
        {
          "name": "conv2d_4/kernel",
          "shape": [
            1,
            1,
            64,
            80
          ],
          "dtype": "float32"
        }
      ]
    },
    {
      "paths": [
        "group129-shard1of1"
      ],
      "weights": [
        {
          "name": "conv2d_40/kernel",
          "shape": [
            1,
            1,
            768,
            192
          ],
          "dtype": "float32"
        }
      ]
    },
    {
      "paths": [
        "group130-shard1of1"
      ],
      "weights": [
        {
          "name": "conv2d_41/kernel",
          "shape": [
            1,
            1,
            768,
            192
          ],
          "dtype": "float32"
        }
      ]
    },
    {
      "paths": [
        "group131-shard1of1"
      ],
      "weights": [
        {
          "name": "conv2d_42/kernel",
          "shape": [
            1,
            1,
            768,
            160
          ],
          "dtype": "float32"
        }
      ]
    },
    {
      "paths": [
        "group132-shard1of1"
      ],
      "weights": [
        {
          "name": "conv2d_43/kernel",
          "shape": [
            1,
            7,
            160,
            160
          ],
          "dtype": "float32"
        }
      ]
    },
    {
      "paths": [
        "group133-shard1of1"
      ],
      "weights": [
        {
          "name": "conv2d_44/kernel",
          "shape": [
            7,
            1,
            160,
            192
          ],
          "dtype": "float32"
        }
      ]
    },
    {
      "paths": [
        "group134-shard1of1"
      ],
      "weights": [
        {
          "name": "conv2d_45/kernel",
          "shape": [
            1,
            1,
            768,
            160
          ],
          "dtype": "float32"
        }
      ]
    },
    {
      "paths": [
        "group135-shard1of1"
      ],
      "weights": [
        {
          "name": "conv2d_46/kernel",
          "shape": [
            7,
            1,
            160,
            160
          ],
          "dtype": "float32"
        }
      ]
    },
    {
      "paths": [
        "group136-shard1of1"
      ],
      "weights": [
        {
          "name": "conv2d_47/kernel",
          "shape": [
            1,
            7,
            160,
            160
          ],
          "dtype": "float32"
        }
      ]
    },
    {
      "paths": [
        "group137-shard1of1"
      ],
      "weights": [
        {
          "name": "conv2d_48/kernel",
          "shape": [
            7,
            1,
            160,
            160
          ],
          "dtype": "float32"
        }
      ]
    },
    {
      "paths": [
        "group138-shard1of1"
      ],
      "weights": [
        {
          "name": "conv2d_49/kernel",
          "shape": [
            1,
            7,
            160,
            192
          ],
          "dtype": "float32"
        }
      ]
    },
    {
      "paths": [
        "group139-shard1of1"
      ],
      "weights": [
        {
          "name": "conv2d_5/kernel",
          "shape": [
            3,
            3,
            80,
            192
          ],
          "dtype": "float32"
        }
      ]
    },
    {
      "paths": [
        "group140-shard1of1"
      ],
      "weights": [
        {
          "name": "conv2d_50/kernel",
          "shape": [
            1,
            1,
            768,
            192
          ],
          "dtype": "float32"
        }
      ]
    },
    {
      "paths": [
        "group141-shard1of1"
      ],
      "weights": [
        {
          "name": "conv2d_51/kernel",
          "shape": [
            1,
            1,
            768,
            192
          ],
          "dtype": "float32"
        }
      ]
    },
    {
      "paths": [
        "group142-shard1of1"
      ],
      "weights": [
        {
          "name": "conv2d_52/kernel",
          "shape": [
            1,
            1,
            768,
            160
          ],
          "dtype": "float32"
        }
      ]
    },
    {
      "paths": [
        "group143-shard1of1"
      ],
      "weights": [
        {
          "name": "conv2d_53/kernel",
          "shape": [
            1,
            7,
            160,
            160
          ],
          "dtype": "float32"
        }
      ]
    },
    {
      "paths": [
        "group144-shard1of1"
      ],
      "weights": [
        {
          "name": "conv2d_54/kernel",
          "shape": [
            7,
            1,
            160,
            192
          ],
          "dtype": "float32"
        }
      ]
    },
    {
      "paths": [
        "group145-shard1of1"
      ],
      "weights": [
        {
          "name": "conv2d_55/kernel",
          "shape": [
            1,
            1,
            768,
            160
          ],
          "dtype": "float32"
        }
      ]
    },
    {
      "paths": [
        "group146-shard1of1"
      ],
      "weights": [
        {
          "name": "conv2d_56/kernel",
          "shape": [
            7,
            1,
            160,
            160
          ],
          "dtype": "float32"
        }
      ]
    },
    {
      "paths": [
        "group147-shard1of1"
      ],
      "weights": [
        {
          "name": "conv2d_57/kernel",
          "shape": [
            1,
            7,
            160,
            160
          ],
          "dtype": "float32"
        }
      ]
    },
    {
      "paths": [
        "group148-shard1of1"
      ],
      "weights": [
        {
          "name": "conv2d_58/kernel",
          "shape": [
            7,
            1,
            160,
            160
          ],
          "dtype": "float32"
        }
      ]
    },
    {
      "paths": [
        "group149-shard1of1"
      ],
      "weights": [
        {
          "name": "conv2d_59/kernel",
          "shape": [
            1,
            7,
            160,
            192
          ],
          "dtype": "float32"
        }
      ]
    },
    {
      "paths": [
        "group150-shard1of1"
      ],
      "weights": [
        {
          "name": "conv2d_6/kernel",
          "shape": [
            1,
            1,
            192,
            64
          ],
          "dtype": "float32"
        }
      ]
    },
    {
      "paths": [
        "group151-shard1of1"
      ],
      "weights": [
        {
          "name": "conv2d_60/kernel",
          "shape": [
            1,
            1,
            768,
            192
          ],
          "dtype": "float32"
        }
      ]
    },
    {
      "paths": [
        "group152-shard1of1"
      ],
      "weights": [
        {
          "name": "conv2d_61/kernel",
          "shape": [
            1,
            1,
            768,
            192
          ],
          "dtype": "float32"
        }
      ]
    },
    {
      "paths": [
        "group153-shard1of1"
      ],
      "weights": [
        {
          "name": "conv2d_62/kernel",
          "shape": [
            1,
            1,
            768,
            192
          ],
          "dtype": "float32"
        }
      ]
    },
    {
      "paths": [
        "group154-shard1of1"
      ],
      "weights": [
        {
          "name": "conv2d_63/kernel",
          "shape": [
            1,
            7,
            192,
            192
          ],
          "dtype": "float32"
        }
      ]
    },
    {
      "paths": [
        "group155-shard1of1"
      ],
      "weights": [
        {
          "name": "conv2d_64/kernel",
          "shape": [
            7,
            1,
            192,
            192
          ],
          "dtype": "float32"
        }
      ]
    },
    {
      "paths": [
        "group156-shard1of1"
      ],
      "weights": [
        {
          "name": "conv2d_65/kernel",
          "shape": [
            1,
            1,
            768,
            192
          ],
          "dtype": "float32"
        }
      ]
    },
    {
      "paths": [
        "group157-shard1of1"
      ],
      "weights": [
        {
          "name": "conv2d_66/kernel",
          "shape": [
            7,
            1,
            192,
            192
          ],
          "dtype": "float32"
        }
      ]
    },
    {
      "paths": [
        "group158-shard1of1"
      ],
      "weights": [
        {
          "name": "conv2d_67/kernel",
          "shape": [
            1,
            7,
            192,
            192
          ],
          "dtype": "float32"
        }
      ]
    },
    {
      "paths": [
        "group159-shard1of1"
      ],
      "weights": [
        {
          "name": "conv2d_68/kernel",
          "shape": [
            7,
            1,
            192,
            192
          ],
          "dtype": "float32"
        }
      ]
    },
    {
      "paths": [
        "group160-shard1of1"
      ],
      "weights": [
        {
          "name": "conv2d_69/kernel",
          "shape": [
            1,
            7,
            192,
            192
          ],
          "dtype": "float32"
        }
      ]
    },
    {
      "paths": [
        "group161-shard1of1"
      ],
      "weights": [
        {
          "name": "conv2d_7/kernel",
          "shape": [
            1,
            1,
            192,
            48
          ],
          "dtype": "float32"
        }
      ]
    },
    {
      "paths": [
        "group162-shard1of1"
      ],
      "weights": [
        {
          "name": "conv2d_70/kernel",
          "shape": [
            1,
            1,
            768,
            192
          ],
          "dtype": "float32"
        }
      ]
    },
    {
      "paths": [
        "group163-shard1of1"
      ],
      "weights": [
        {
          "name": "conv2d_71/kernel",
          "shape": [
            1,
            1,
            768,
            192
          ],
          "dtype": "float32"
        }
      ]
    },
    {
      "paths": [
        "group164-shard1of1"
      ],
      "weights": [
        {
          "name": "conv2d_72/kernel",
          "shape": [
            3,
            3,
            192,
            320
          ],
          "dtype": "float32"
        }
      ]
    },
    {
      "paths": [
        "group165-shard1of1"
      ],
      "weights": [
        {
          "name": "conv2d_73/kernel",
          "shape": [
            1,
            1,
            768,
            192
          ],
          "dtype": "float32"
        }
      ]
    },
    {
      "paths": [
        "group166-shard1of1"
      ],
      "weights": [
        {
          "name": "conv2d_74/kernel",
          "shape": [
            1,
            7,
            192,
            192
          ],
          "dtype": "float32"
        }
      ]
    },
    {
      "paths": [
        "group167-shard1of1"
      ],
      "weights": [
        {
          "name": "conv2d_75/kernel",
          "shape": [
            7,
            1,
            192,
            192
          ],
          "dtype": "float32"
        }
      ]
    },
    {
      "paths": [
        "group168-shard1of1"
      ],
      "weights": [
        {
          "name": "conv2d_76/kernel",
          "shape": [
            3,
            3,
            192,
            192
          ],
          "dtype": "float32"
        }
      ]
    },
    {
      "paths": [
        "group169-shard1of1"
      ],
      "weights": [
        {
          "name": "conv2d_77/kernel",
          "shape": [
            1,
            1,
            1280,
            320
          ],
          "dtype": "float32"
        }
      ]
    },
    {
      "paths": [
        "group170-shard1of1"
      ],
      "weights": [
        {
          "name": "conv2d_78/kernel",
          "shape": [
            1,
            1,
            1280,
            384
          ],
          "dtype": "float32"
        }
      ]
    },
    {
      "paths": [
        "group171-shard1of1"
      ],
      "weights": [
        {
          "name": "conv2d_79/kernel",
          "shape": [
            1,
            3,
            384,
            384
          ],
          "dtype": "float32"
        }
      ]
    },
    {
      "paths": [
        "group172-shard1of1"
      ],
      "weights": [
        {
          "name": "conv2d_8/kernel",
          "shape": [
            5,
            5,
            48,
            64
          ],
          "dtype": "float32"
        }
      ]
    },
    {
      "paths": [
        "group173-shard1of1"
      ],
      "weights": [
        {
          "name": "conv2d_80/kernel",
          "shape": [
            3,
            1,
            384,
            384
          ],
          "dtype": "float32"
        }
      ]
    },
    {
      "paths": [
        "group174-shard1of1"
      ],
      "weights": [
        {
          "name": "conv2d_81/kernel",
          "shape": [
            1,
            1,
            1280,
            448
          ],
          "dtype": "float32"
        }
      ]
    },
    {
      "paths": [
        "group175-shard1of2",
        "group175-shard2of2"
      ],
      "weights": [
        {
          "name": "conv2d_82/kernel",
          "shape": [
            3,
            3,
            448,
            384
          ],
          "dtype": "float32"
        }
      ]
    },
    {
      "paths": [
        "group176-shard1of1"
      ],
      "weights": [
        {
          "name": "conv2d_83/kernel",
          "shape": [
            1,
            3,
            384,
            384
          ],
          "dtype": "float32"
        }
      ]
    },
    {
      "paths": [
        "group177-shard1of1"
      ],
      "weights": [
        {
          "name": "conv2d_84/kernel",
          "shape": [
            3,
            1,
            384,
            384
          ],
          "dtype": "float32"
        }
      ]
    },
    {
      "paths": [
        "group178-shard1of1"
      ],
      "weights": [
        {
          "name": "conv2d_85/kernel",
          "shape": [
            1,
            1,
            1280,
            192
          ],
          "dtype": "float32"
        }
      ]
    },
    {
      "paths": [
        "group179-shard1of1"
      ],
      "weights": [
        {
          "name": "conv2d_86/kernel",
          "shape": [
            1,
            1,
            2048,
            320
          ],
          "dtype": "float32"
        }
      ]
    },
    {
      "paths": [
        "group180-shard1of1"
      ],
      "weights": [
        {
          "name": "conv2d_87/kernel",
          "shape": [
            1,
            1,
            2048,
            384
          ],
          "dtype": "float32"
        }
      ]
    },
    {
      "paths": [
        "group181-shard1of1"
      ],
      "weights": [
        {
          "name": "conv2d_88/kernel",
          "shape": [
            1,
            3,
            384,
            384
          ],
          "dtype": "float32"
        }
      ]
    },
    {
      "paths": [
        "group182-shard1of1"
      ],
      "weights": [
        {
          "name": "conv2d_89/kernel",
          "shape": [
            3,
            1,
            384,
            384
          ],
          "dtype": "float32"
        }
      ]
    },
    {
      "paths": [
        "group183-shard1of1"
      ],
      "weights": [
        {
          "name": "conv2d_9/kernel",
          "shape": [
            1,
            1,
            192,
            64
          ],
          "dtype": "float32"
        }
      ]
    },
    {
      "paths": [
        "group184-shard1of1"
      ],
      "weights": [
        {
          "name": "conv2d_90/kernel",
          "shape": [
            1,
            1,
            2048,
            448
          ],
          "dtype": "float32"
        }
      ]
    },
    {
      "paths": [
        "group185-shard1of2",
        "group185-shard2of2"
      ],
      "weights": [
        {
          "name": "conv2d_91/kernel",
          "shape": [
            3,
            3,
            448,
            384
          ],
          "dtype": "float32"
        }
      ]
    },
    {
      "paths": [
        "group186-shard1of1"
      ],
      "weights": [
        {
          "name": "conv2d_92/kernel",
          "shape": [
            1,
            3,
            384,
            384
          ],
          "dtype": "float32"
        }
      ]
    },
    {
      "paths": [
        "group187-shard1of1"
      ],
      "weights": [
        {
          "name": "conv2d_93/kernel",
          "shape": [
            3,
            1,
            384,
            384
          ],
          "dtype": "float32"
        }
      ]
    },
    {
      "paths": [
        "group188-shard1of1"
      ],
      "weights": [
        {
          "name": "conv2d_94/kernel",
          "shape": [
            1,
            1,
            2048,
            192
          ],
          "dtype": "float32"
        }
      ]
    },
    {
      "paths": [
        "group189-shard1of1"
      ],
      "weights": [
        {
          "name": "dense_1/kernel",
          "shape": [
            2048,
            128
          ],
          "dtype": "float32"
        },
        {
          "name": "dense_1/bias",
          "shape": [
            128
          ],
          "dtype": "float32"
        }
      ]
    },
    {
      "paths": [
        "group190-shard1of1"
      ],
      "weights": [
        {
          "name": "dense_2/kernel",
          "shape": [
            128,
            7
          ],
          "dtype": "float32"
        },
        {
          "name": "dense_2/bias",
          "shape": [
            7
          ],
          "dtype": "float32"
        }
      ]
    }
  ],
  "modelTopology": {
    "training_config": {
      "loss_weights": null,
      "loss": "categorical_crossentropy",
      "optimizer_config": {
        "config": {
          "decay": 9.999999974752427e-07,
          "epsilon": 1e-07,
          "rho": 0.8999999761581421,
          "lr": 9.999999747378752e-05
        },
        "class_name": "RMSprop"
      },
      "sample_weight_mode": null,
      "metrics": [
        "categorical_accuracy"
      ]
    },
    "keras_version": "2.1.6",
    "model_config": {
      "config": {
        "output_layers": [
          [
            "activation_95",
            0,
            0
          ]
        ],
        "name": "model_1",
        "layers": [
          {
            "name": "input_1",
            "config": {
              "name": "input_1",
              "batch_input_shape": [
                null,
                224,
                224,
                3
              ],
              "sparse": false,
              "dtype": "float32"
            },
            "class_name": "InputLayer",
            "inbound_nodes": []
          },
          {
            "name": "conv2d_1",
            "config": {
              "kernel_constraint": null,
              "activity_regularizer": null,
              "trainable": true,
              "strides": [
                2,
                2
              ],
              "kernel_size": [
                3,
                3
              ],
              "filters": 32,
              "bias_initializer": {
                "config": {},
                "class_name": "Zeros"
              },
              "kernel_initializer": {
                "config": {
                  "mode": "fan_avg",
                  "distribution": "uniform",
                  "seed": null,
                  "scale": 1.0
                },
                "class_name": "VarianceScaling"
              },
              "name": "conv2d_1",
              "use_bias": false,
              "bias_constraint": null,
              "bias_regularizer": null,
              "data_format": "channels_last",
              "activation": "linear",
              "dilation_rate": [
                1,
                1
              ],
              "kernel_regularizer": null,
              "padding": "valid"
            },
            "class_name": "Conv2D",
            "inbound_nodes": [
              [
                [
                  "input_1",
                  0,
                  0,
                  {}
                ]
              ]
            ]
          },
          {
            "name": "batch_normalization_1",
            "config": {
              "moving_variance_initializer": {
                "config": {},
                "class_name": "Ones"
              },
              "trainable": true,
              "gamma_initializer": {
                "config": {},
                "class_name": "Ones"
              },
              "beta_initializer": {
                "config": {},
                "class_name": "Zeros"
              },
              "gamma_constraint": null,
              "gamma_regularizer": null,
              "name": "batch_normalization_1",
              "momentum": 0.99,
              "axis": 3,
              "scale": false,
              "moving_mean_initializer": {
                "config": {},
                "class_name": "Zeros"
              },
              "beta_constraint": null,
              "center": true,
              "beta_regularizer": null,
              "epsilon": 0.001
            },
            "class_name": "BatchNormalization",
            "inbound_nodes": [
              [
                [
                  "conv2d_1",
                  0,
                  0,
                  {}
                ]
              ]
            ]
          },
          {
            "name": "activation_1",
            "config": {
              "name": "activation_1",
              "activation": "relu",
              "trainable": true
            },
            "class_name": "Activation",
            "inbound_nodes": [
              [
                [
                  "batch_normalization_1",
                  0,
                  0,
                  {}
                ]
              ]
            ]
          },
          {
            "name": "conv2d_2",
            "config": {
              "kernel_constraint": null,
              "activity_regularizer": null,
              "trainable": true,
              "strides": [
                1,
                1
              ],
              "kernel_size": [
                3,
                3
              ],
              "filters": 32,
              "bias_initializer": {
                "config": {},
                "class_name": "Zeros"
              },
              "kernel_initializer": {
                "config": {
                  "mode": "fan_avg",
                  "distribution": "uniform",
                  "seed": null,
                  "scale": 1.0
                },
                "class_name": "VarianceScaling"
              },
              "name": "conv2d_2",
              "use_bias": false,
              "bias_constraint": null,
              "bias_regularizer": null,
              "data_format": "channels_last",
              "activation": "linear",
              "dilation_rate": [
                1,
                1
              ],
              "kernel_regularizer": null,
              "padding": "valid"
            },
            "class_name": "Conv2D",
            "inbound_nodes": [
              [
                [
                  "activation_1",
                  0,
                  0,
                  {}
                ]
              ]
            ]
          },
          {
            "name": "batch_normalization_2",
            "config": {
              "moving_variance_initializer": {
                "config": {},
                "class_name": "Ones"
              },
              "trainable": true,
              "gamma_initializer": {
                "config": {},
                "class_name": "Ones"
              },
              "beta_initializer": {
                "config": {},
                "class_name": "Zeros"
              },
              "gamma_constraint": null,
              "gamma_regularizer": null,
              "name": "batch_normalization_2",
              "momentum": 0.99,
              "axis": 3,
              "scale": false,
              "moving_mean_initializer": {
                "config": {},
                "class_name": "Zeros"
              },
              "beta_constraint": null,
              "center": true,
              "beta_regularizer": null,
              "epsilon": 0.001
            },
            "class_name": "BatchNormalization",
            "inbound_nodes": [
              [
                [
                  "conv2d_2",
                  0,
                  0,
                  {}
                ]
              ]
            ]
          },
          {
            "name": "activation_2",
            "config": {
              "name": "activation_2",
              "activation": "relu",
              "trainable": true
            },
            "class_name": "Activation",
            "inbound_nodes": [
              [
                [
                  "batch_normalization_2",
                  0,
                  0,
                  {}
                ]
              ]
            ]
          },
          {
            "name": "conv2d_3",
            "config": {
              "kernel_constraint": null,
              "activity_regularizer": null,
              "trainable": true,
              "strides": [
                1,
                1
              ],
              "kernel_size": [
                3,
                3
              ],
              "filters": 64,
              "bias_initializer": {
                "config": {},
                "class_name": "Zeros"
              },
              "kernel_initializer": {
                "config": {
                  "mode": "fan_avg",
                  "distribution": "uniform",
                  "seed": null,
                  "scale": 1.0
                },
                "class_name": "VarianceScaling"
              },
              "name": "conv2d_3",
              "use_bias": false,
              "bias_constraint": null,
              "bias_regularizer": null,
              "data_format": "channels_last",
              "activation": "linear",
              "dilation_rate": [
                1,
                1
              ],
              "kernel_regularizer": null,
              "padding": "same"
            },
            "class_name": "Conv2D",
            "inbound_nodes": [
              [
                [
                  "activation_2",
                  0,
                  0,
                  {}
                ]
              ]
            ]
          },
          {
            "name": "batch_normalization_3",
            "config": {
              "moving_variance_initializer": {
                "config": {},
                "class_name": "Ones"
              },
              "trainable": true,
              "gamma_initializer": {
                "config": {},
                "class_name": "Ones"
              },
              "beta_initializer": {
                "config": {},
                "class_name": "Zeros"
              },
              "gamma_constraint": null,
              "gamma_regularizer": null,
              "name": "batch_normalization_3",
              "momentum": 0.99,
              "axis": 3,
              "scale": false,
              "moving_mean_initializer": {
                "config": {},
                "class_name": "Zeros"
              },
              "beta_constraint": null,
              "center": true,
              "beta_regularizer": null,
              "epsilon": 0.001
            },
            "class_name": "BatchNormalization",
            "inbound_nodes": [
              [
                [
                  "conv2d_3",
                  0,
                  0,
                  {}
                ]
              ]
            ]
          },
          {
            "name": "activation_3",
            "config": {
              "name": "activation_3",
              "activation": "relu",
              "trainable": true
            },
            "class_name": "Activation",
            "inbound_nodes": [
              [
                [
                  "batch_normalization_3",
                  0,
                  0,
                  {}
                ]
              ]
            ]
          },
          {
            "name": "max_pooling2d_1",
            "config": {
              "name": "max_pooling2d_1",
              "strides": [
                2,
                2
              ],
              "trainable": true,
              "pool_size": [
                3,
                3
              ],
              "data_format": "channels_last",
              "padding": "valid"
            },
            "class_name": "MaxPooling2D",
            "inbound_nodes": [
              [
                [
                  "activation_3",
                  0,
                  0,
                  {}
                ]
              ]
            ]
          },
          {
            "name": "conv2d_4",
            "config": {
              "kernel_constraint": null,
              "activity_regularizer": null,
              "trainable": true,
              "strides": [
                1,
                1
              ],
              "kernel_size": [
                1,
                1
              ],
              "filters": 80,
              "bias_initializer": {
                "config": {},
                "class_name": "Zeros"
              },
              "kernel_initializer": {
                "config": {
                  "mode": "fan_avg",
                  "distribution": "uniform",
                  "seed": null,
                  "scale": 1.0
                },
                "class_name": "VarianceScaling"
              },
              "name": "conv2d_4",
              "use_bias": false,
              "bias_constraint": null,
              "bias_regularizer": null,
              "data_format": "channels_last",
              "activation": "linear",
              "dilation_rate": [
                1,
                1
              ],
              "kernel_regularizer": null,
              "padding": "valid"
            },
            "class_name": "Conv2D",
            "inbound_nodes": [
              [
                [
                  "max_pooling2d_1",
                  0,
                  0,
                  {}
                ]
              ]
            ]
          },
          {
            "name": "batch_normalization_4",
            "config": {
              "moving_variance_initializer": {
                "config": {},
                "class_name": "Ones"
              },
              "trainable": true,
              "gamma_initializer": {
                "config": {},
                "class_name": "Ones"
              },
              "beta_initializer": {
                "config": {},
                "class_name": "Zeros"
              },
              "gamma_constraint": null,
              "gamma_regularizer": null,
              "name": "batch_normalization_4",
              "momentum": 0.99,
              "axis": 3,
              "scale": false,
              "moving_mean_initializer": {
                "config": {},
                "class_name": "Zeros"
              },
              "beta_constraint": null,
              "center": true,
              "beta_regularizer": null,
              "epsilon": 0.001
            },
            "class_name": "BatchNormalization",
            "inbound_nodes": [
              [
                [
                  "conv2d_4",
                  0,
                  0,
                  {}
                ]
              ]
            ]
          },
          {
            "name": "activation_4",
            "config": {
              "name": "activation_4",
              "activation": "relu",
              "trainable": true
            },
            "class_name": "Activation",
            "inbound_nodes": [
              [
                [
                  "batch_normalization_4",
                  0,
                  0,
                  {}
                ]
              ]
            ]
          },
          {
            "name": "conv2d_5",
            "config": {
              "kernel_constraint": null,
              "activity_regularizer": null,
              "trainable": true,
              "strides": [
                1,
                1
              ],
              "kernel_size": [
                3,
                3
              ],
              "filters": 192,
              "bias_initializer": {
                "config": {},
                "class_name": "Zeros"
              },
              "kernel_initializer": {
                "config": {
                  "mode": "fan_avg",
                  "distribution": "uniform",
                  "seed": null,
                  "scale": 1.0
                },
                "class_name": "VarianceScaling"
              },
              "name": "conv2d_5",
              "use_bias": false,
              "bias_constraint": null,
              "bias_regularizer": null,
              "data_format": "channels_last",
              "activation": "linear",
              "dilation_rate": [
                1,
                1
              ],
              "kernel_regularizer": null,
              "padding": "valid"
            },
            "class_name": "Conv2D",
            "inbound_nodes": [
              [
                [
                  "activation_4",
                  0,
                  0,
                  {}
                ]
              ]
            ]
          },
          {
            "name": "batch_normalization_5",
            "config": {
              "moving_variance_initializer": {
                "config": {},
                "class_name": "Ones"
              },
              "trainable": true,
              "gamma_initializer": {
                "config": {},
                "class_name": "Ones"
              },
              "beta_initializer": {
                "config": {},
                "class_name": "Zeros"
              },
              "gamma_constraint": null,
              "gamma_regularizer": null,
              "name": "batch_normalization_5",
              "momentum": 0.99,
              "axis": 3,
              "scale": false,
              "moving_mean_initializer": {
                "config": {},
                "class_name": "Zeros"
              },
              "beta_constraint": null,
              "center": true,
              "beta_regularizer": null,
              "epsilon": 0.001
            },
            "class_name": "BatchNormalization",
            "inbound_nodes": [
              [
                [
                  "conv2d_5",
                  0,
                  0,
                  {}
                ]
              ]
            ]
          },
          {
            "name": "activation_5",
            "config": {
              "name": "activation_5",
              "activation": "relu",
              "trainable": true
            },
            "class_name": "Activation",
            "inbound_nodes": [
              [
                [
                  "batch_normalization_5",
                  0,
                  0,
                  {}
                ]
              ]
            ]
          },
          {
            "name": "max_pooling2d_2",
            "config": {
              "name": "max_pooling2d_2",
              "strides": [
                2,
                2
              ],
              "trainable": true,
              "pool_size": [
                3,
                3
              ],
              "data_format": "channels_last",
              "padding": "valid"
            },
            "class_name": "MaxPooling2D",
            "inbound_nodes": [
              [
                [
                  "activation_5",
                  0,
                  0,
                  {}
                ]
              ]
            ]
          },
          {
            "name": "conv2d_9",
            "config": {
              "kernel_constraint": null,
              "activity_regularizer": null,
              "trainable": true,
              "strides": [
                1,
                1
              ],
              "kernel_size": [
                1,
                1
              ],
              "filters": 64,
              "bias_initializer": {
                "config": {},
                "class_name": "Zeros"
              },
              "kernel_initializer": {
                "config": {
                  "mode": "fan_avg",
                  "distribution": "uniform",
                  "seed": null,
                  "scale": 1.0
                },
                "class_name": "VarianceScaling"
              },
              "name": "conv2d_9",
              "use_bias": false,
              "bias_constraint": null,
              "bias_regularizer": null,
              "data_format": "channels_last",
              "activation": "linear",
              "dilation_rate": [
                1,
                1
              ],
              "kernel_regularizer": null,
              "padding": "same"
            },
            "class_name": "Conv2D",
            "inbound_nodes": [
              [
                [
                  "max_pooling2d_2",
                  0,
                  0,
                  {}
                ]
              ]
            ]
          },
          {
            "name": "batch_normalization_9",
            "config": {
              "moving_variance_initializer": {
                "config": {},
                "class_name": "Ones"
              },
              "trainable": true,
              "gamma_initializer": {
                "config": {},
                "class_name": "Ones"
              },
              "beta_initializer": {
                "config": {},
                "class_name": "Zeros"
              },
              "gamma_constraint": null,
              "gamma_regularizer": null,
              "name": "batch_normalization_9",
              "momentum": 0.99,
              "axis": 3,
              "scale": false,
              "moving_mean_initializer": {
                "config": {},
                "class_name": "Zeros"
              },
              "beta_constraint": null,
              "center": true,
              "beta_regularizer": null,
              "epsilon": 0.001
            },
            "class_name": "BatchNormalization",
            "inbound_nodes": [
              [
                [
                  "conv2d_9",
                  0,
                  0,
                  {}
                ]
              ]
            ]
          },
          {
            "name": "activation_9",
            "config": {
              "name": "activation_9",
              "activation": "relu",
              "trainable": true
            },
            "class_name": "Activation",
            "inbound_nodes": [
              [
                [
                  "batch_normalization_9",
                  0,
                  0,
                  {}
                ]
              ]
            ]
          },
          {
            "name": "conv2d_7",
            "config": {
              "kernel_constraint": null,
              "activity_regularizer": null,
              "trainable": true,
              "strides": [
                1,
                1
              ],
              "kernel_size": [
                1,
                1
              ],
              "filters": 48,
              "bias_initializer": {
                "config": {},
                "class_name": "Zeros"
              },
              "kernel_initializer": {
                "config": {
                  "mode": "fan_avg",
                  "distribution": "uniform",
                  "seed": null,
                  "scale": 1.0
                },
                "class_name": "VarianceScaling"
              },
              "name": "conv2d_7",
              "use_bias": false,
              "bias_constraint": null,
              "bias_regularizer": null,
              "data_format": "channels_last",
              "activation": "linear",
              "dilation_rate": [
                1,
                1
              ],
              "kernel_regularizer": null,
              "padding": "same"
            },
            "class_name": "Conv2D",
            "inbound_nodes": [
              [
                [
                  "max_pooling2d_2",
                  0,
                  0,
                  {}
                ]
              ]
            ]
          },
          {
            "name": "conv2d_10",
            "config": {
              "kernel_constraint": null,
              "activity_regularizer": null,
              "trainable": true,
              "strides": [
                1,
                1
              ],
              "kernel_size": [
                3,
                3
              ],
              "filters": 96,
              "bias_initializer": {
                "config": {},
                "class_name": "Zeros"
              },
              "kernel_initializer": {
                "config": {
                  "mode": "fan_avg",
                  "distribution": "uniform",
                  "seed": null,
                  "scale": 1.0
                },
                "class_name": "VarianceScaling"
              },
              "name": "conv2d_10",
              "use_bias": false,
              "bias_constraint": null,
              "bias_regularizer": null,
              "data_format": "channels_last",
              "activation": "linear",
              "dilation_rate": [
                1,
                1
              ],
              "kernel_regularizer": null,
              "padding": "same"
            },
            "class_name": "Conv2D",
            "inbound_nodes": [
              [
                [
                  "activation_9",
                  0,
                  0,
                  {}
                ]
              ]
            ]
          },
          {
            "name": "batch_normalization_7",
            "config": {
              "moving_variance_initializer": {
                "config": {},
                "class_name": "Ones"
              },
              "trainable": true,
              "gamma_initializer": {
                "config": {},
                "class_name": "Ones"
              },
              "beta_initializer": {
                "config": {},
                "class_name": "Zeros"
              },
              "gamma_constraint": null,
              "gamma_regularizer": null,
              "name": "batch_normalization_7",
              "momentum": 0.99,
              "axis": 3,
              "scale": false,
              "moving_mean_initializer": {
                "config": {},
                "class_name": "Zeros"
              },
              "beta_constraint": null,
              "center": true,
              "beta_regularizer": null,
              "epsilon": 0.001
            },
            "class_name": "BatchNormalization",
            "inbound_nodes": [
              [
                [
                  "conv2d_7",
                  0,
                  0,
                  {}
                ]
              ]
            ]
          },
          {
            "name": "batch_normalization_10",
            "config": {
              "moving_variance_initializer": {
                "config": {},
                "class_name": "Ones"
              },
              "trainable": true,
              "gamma_initializer": {
                "config": {},
                "class_name": "Ones"
              },
              "beta_initializer": {
                "config": {},
                "class_name": "Zeros"
              },
              "gamma_constraint": null,
              "gamma_regularizer": null,
              "name": "batch_normalization_10",
              "momentum": 0.99,
              "axis": 3,
              "scale": false,
              "moving_mean_initializer": {
                "config": {},
                "class_name": "Zeros"
              },
              "beta_constraint": null,
              "center": true,
              "beta_regularizer": null,
              "epsilon": 0.001
            },
            "class_name": "BatchNormalization",
            "inbound_nodes": [
              [
                [
                  "conv2d_10",
                  0,
                  0,
                  {}
                ]
              ]
            ]
          },
          {
            "name": "activation_7",
            "config": {
              "name": "activation_7",
              "activation": "relu",
              "trainable": true
            },
            "class_name": "Activation",
            "inbound_nodes": [
              [
                [
                  "batch_normalization_7",
                  0,
                  0,
                  {}
                ]
              ]
            ]
          },
          {
            "name": "activation_10",
            "config": {
              "name": "activation_10",
              "activation": "relu",
              "trainable": true
            },
            "class_name": "Activation",
            "inbound_nodes": [
              [
                [
                  "batch_normalization_10",
                  0,
                  0,
                  {}
                ]
              ]
            ]
          },
          {
            "name": "average_pooling2d_1",
            "config": {
              "name": "average_pooling2d_1",
              "strides": [
                1,
                1
              ],
              "trainable": true,
              "pool_size": [
                3,
                3
              ],
              "data_format": "channels_last",
              "padding": "same"
            },
            "class_name": "AveragePooling2D",
            "inbound_nodes": [
              [
                [
                  "max_pooling2d_2",
                  0,
                  0,
                  {}
                ]
              ]
            ]
          },
          {
            "name": "conv2d_6",
            "config": {
              "kernel_constraint": null,
              "activity_regularizer": null,
              "trainable": true,
              "strides": [
                1,
                1
              ],
              "kernel_size": [
                1,
                1
              ],
              "filters": 64,
              "bias_initializer": {
                "config": {},
                "class_name": "Zeros"
              },
              "kernel_initializer": {
                "config": {
                  "mode": "fan_avg",
                  "distribution": "uniform",
                  "seed": null,
                  "scale": 1.0
                },
                "class_name": "VarianceScaling"
              },
              "name": "conv2d_6",
              "use_bias": false,
              "bias_constraint": null,
              "bias_regularizer": null,
              "data_format": "channels_last",
              "activation": "linear",
              "dilation_rate": [
                1,
                1
              ],
              "kernel_regularizer": null,
              "padding": "same"
            },
            "class_name": "Conv2D",
            "inbound_nodes": [
              [
                [
                  "max_pooling2d_2",
                  0,
                  0,
                  {}
                ]
              ]
            ]
          },
          {
            "name": "conv2d_8",
            "config": {
              "kernel_constraint": null,
              "activity_regularizer": null,
              "trainable": true,
              "strides": [
                1,
                1
              ],
              "kernel_size": [
                5,
                5
              ],
              "filters": 64,
              "bias_initializer": {
                "config": {},
                "class_name": "Zeros"
              },
              "kernel_initializer": {
                "config": {
                  "mode": "fan_avg",
                  "distribution": "uniform",
                  "seed": null,
                  "scale": 1.0
                },
                "class_name": "VarianceScaling"
              },
              "name": "conv2d_8",
              "use_bias": false,
              "bias_constraint": null,
              "bias_regularizer": null,
              "data_format": "channels_last",
              "activation": "linear",
              "dilation_rate": [
                1,
                1
              ],
              "kernel_regularizer": null,
              "padding": "same"
            },
            "class_name": "Conv2D",
            "inbound_nodes": [
              [
                [
                  "activation_7",
                  0,
                  0,
                  {}
                ]
              ]
            ]
          },
          {
            "name": "conv2d_11",
            "config": {
              "kernel_constraint": null,
              "activity_regularizer": null,
              "trainable": true,
              "strides": [
                1,
                1
              ],
              "kernel_size": [
                3,
                3
              ],
              "filters": 96,
              "bias_initializer": {
                "config": {},
                "class_name": "Zeros"
              },
              "kernel_initializer": {
                "config": {
                  "mode": "fan_avg",
                  "distribution": "uniform",
                  "seed": null,
                  "scale": 1.0
                },
                "class_name": "VarianceScaling"
              },
              "name": "conv2d_11",
              "use_bias": false,
              "bias_constraint": null,
              "bias_regularizer": null,
              "data_format": "channels_last",
              "activation": "linear",
              "dilation_rate": [
                1,
                1
              ],
              "kernel_regularizer": null,
              "padding": "same"
            },
            "class_name": "Conv2D",
            "inbound_nodes": [
              [
                [
                  "activation_10",
                  0,
                  0,
                  {}
                ]
              ]
            ]
          },
          {
            "name": "conv2d_12",
            "config": {
              "kernel_constraint": null,
              "activity_regularizer": null,
              "trainable": true,
              "strides": [
                1,
                1
              ],
              "kernel_size": [
                1,
                1
              ],
              "filters": 32,
              "bias_initializer": {
                "config": {},
                "class_name": "Zeros"
              },
              "kernel_initializer": {
                "config": {
                  "mode": "fan_avg",
                  "distribution": "uniform",
                  "seed": null,
                  "scale": 1.0
                },
                "class_name": "VarianceScaling"
              },
              "name": "conv2d_12",
              "use_bias": false,
              "bias_constraint": null,
              "bias_regularizer": null,
              "data_format": "channels_last",
              "activation": "linear",
              "dilation_rate": [
                1,
                1
              ],
              "kernel_regularizer": null,
              "padding": "same"
            },
            "class_name": "Conv2D",
            "inbound_nodes": [
              [
                [
                  "average_pooling2d_1",
                  0,
                  0,
                  {}
                ]
              ]
            ]
          },
          {
            "name": "batch_normalization_6",
            "config": {
              "moving_variance_initializer": {
                "config": {},
                "class_name": "Ones"
              },
              "trainable": true,
              "gamma_initializer": {
                "config": {},
                "class_name": "Ones"
              },
              "beta_initializer": {
                "config": {},
                "class_name": "Zeros"
              },
              "gamma_constraint": null,
              "gamma_regularizer": null,
              "name": "batch_normalization_6",
              "momentum": 0.99,
              "axis": 3,
              "scale": false,
              "moving_mean_initializer": {
                "config": {},
                "class_name": "Zeros"
              },
              "beta_constraint": null,
              "center": true,
              "beta_regularizer": null,
              "epsilon": 0.001
            },
            "class_name": "BatchNormalization",
            "inbound_nodes": [
              [
                [
                  "conv2d_6",
                  0,
                  0,
                  {}
                ]
              ]
            ]
          },
          {
            "name": "batch_normalization_8",
            "config": {
              "moving_variance_initializer": {
                "config": {},
                "class_name": "Ones"
              },
              "trainable": true,
              "gamma_initializer": {
                "config": {},
                "class_name": "Ones"
              },
              "beta_initializer": {
                "config": {},
                "class_name": "Zeros"
              },
              "gamma_constraint": null,
              "gamma_regularizer": null,
              "name": "batch_normalization_8",
              "momentum": 0.99,
              "axis": 3,
              "scale": false,
              "moving_mean_initializer": {
                "config": {},
                "class_name": "Zeros"
              },
              "beta_constraint": null,
              "center": true,
              "beta_regularizer": null,
              "epsilon": 0.001
            },
            "class_name": "BatchNormalization",
            "inbound_nodes": [
              [
                [
                  "conv2d_8",
                  0,
                  0,
                  {}
                ]
              ]
            ]
          },
          {
            "name": "batch_normalization_11",
            "config": {
              "moving_variance_initializer": {
                "config": {},
                "class_name": "Ones"
              },
              "trainable": true,
              "gamma_initializer": {
                "config": {},
                "class_name": "Ones"
              },
              "beta_initializer": {
                "config": {},
                "class_name": "Zeros"
              },
              "gamma_constraint": null,
              "gamma_regularizer": null,
              "name": "batch_normalization_11",
              "momentum": 0.99,
              "axis": 3,
              "scale": false,
              "moving_mean_initializer": {
                "config": {},
                "class_name": "Zeros"
              },
              "beta_constraint": null,
              "center": true,
              "beta_regularizer": null,
              "epsilon": 0.001
            },
            "class_name": "BatchNormalization",
            "inbound_nodes": [
              [
                [
                  "conv2d_11",
                  0,
                  0,
                  {}
                ]
              ]
            ]
          },
          {
            "name": "batch_normalization_12",
            "config": {
              "moving_variance_initializer": {
                "config": {},
                "class_name": "Ones"
              },
              "trainable": true,
              "gamma_initializer": {
                "config": {},
                "class_name": "Ones"
              },
              "beta_initializer": {
                "config": {},
                "class_name": "Zeros"
              },
              "gamma_constraint": null,
              "gamma_regularizer": null,
              "name": "batch_normalization_12",
              "momentum": 0.99,
              "axis": 3,
              "scale": false,
              "moving_mean_initializer": {
                "config": {},
                "class_name": "Zeros"
              },
              "beta_constraint": null,
              "center": true,
              "beta_regularizer": null,
              "epsilon": 0.001
            },
            "class_name": "BatchNormalization",
            "inbound_nodes": [
              [
                [
                  "conv2d_12",
                  0,
                  0,
                  {}
                ]
              ]
            ]
          },
          {
            "name": "activation_6",
            "config": {
              "name": "activation_6",
              "activation": "relu",
              "trainable": true
            },
            "class_name": "Activation",
            "inbound_nodes": [
              [
                [
                  "batch_normalization_6",
                  0,
                  0,
                  {}
                ]
              ]
            ]
          },
          {
            "name": "activation_8",
            "config": {
              "name": "activation_8",
              "activation": "relu",
              "trainable": true
            },
            "class_name": "Activation",
            "inbound_nodes": [
              [
                [
                  "batch_normalization_8",
                  0,
                  0,
                  {}
                ]
              ]
            ]
          },
          {
            "name": "activation_11",
            "config": {
              "name": "activation_11",
              "activation": "relu",
              "trainable": true
            },
            "class_name": "Activation",
            "inbound_nodes": [
              [
                [
                  "batch_normalization_11",
                  0,
                  0,
                  {}
                ]
              ]
            ]
          },
          {
            "name": "activation_12",
            "config": {
              "name": "activation_12",
              "activation": "relu",
              "trainable": true
            },
            "class_name": "Activation",
            "inbound_nodes": [
              [
                [
                  "batch_normalization_12",
                  0,
                  0,
                  {}
                ]
              ]
            ]
          },
          {
            "name": "mixed0",
            "config": {
              "name": "mixed0",
              "axis": 3,
              "trainable": true
            },
            "class_name": "Concatenate",
            "inbound_nodes": [
              [
                [
                  "activation_6",
                  0,
                  0,
                  {}
                ],
                [
                  "activation_8",
                  0,
                  0,
                  {}
                ],
                [
                  "activation_11",
                  0,
                  0,
                  {}
                ],
                [
                  "activation_12",
                  0,
                  0,
                  {}
                ]
              ]
            ]
          },
          {
            "name": "conv2d_16",
            "config": {
              "kernel_constraint": null,
              "activity_regularizer": null,
              "trainable": true,
              "strides": [
                1,
                1
              ],
              "kernel_size": [
                1,
                1
              ],
              "filters": 64,
              "bias_initializer": {
                "config": {},
                "class_name": "Zeros"
              },
              "kernel_initializer": {
                "config": {
                  "mode": "fan_avg",
                  "distribution": "uniform",
                  "seed": null,
                  "scale": 1.0
                },
                "class_name": "VarianceScaling"
              },
              "name": "conv2d_16",
              "use_bias": false,
              "bias_constraint": null,
              "bias_regularizer": null,
              "data_format": "channels_last",
              "activation": "linear",
              "dilation_rate": [
                1,
                1
              ],
              "kernel_regularizer": null,
              "padding": "same"
            },
            "class_name": "Conv2D",
            "inbound_nodes": [
              [
                [
                  "mixed0",
                  0,
                  0,
                  {}
                ]
              ]
            ]
          },
          {
            "name": "batch_normalization_16",
            "config": {
              "moving_variance_initializer": {
                "config": {},
                "class_name": "Ones"
              },
              "trainable": true,
              "gamma_initializer": {
                "config": {},
                "class_name": "Ones"
              },
              "beta_initializer": {
                "config": {},
                "class_name": "Zeros"
              },
              "gamma_constraint": null,
              "gamma_regularizer": null,
              "name": "batch_normalization_16",
              "momentum": 0.99,
              "axis": 3,
              "scale": false,
              "moving_mean_initializer": {
                "config": {},
                "class_name": "Zeros"
              },
              "beta_constraint": null,
              "center": true,
              "beta_regularizer": null,
              "epsilon": 0.001
            },
            "class_name": "BatchNormalization",
            "inbound_nodes": [
              [
                [
                  "conv2d_16",
                  0,
                  0,
                  {}
                ]
              ]
            ]
          },
          {
            "name": "activation_16",
            "config": {
              "name": "activation_16",
              "activation": "relu",
              "trainable": true
            },
            "class_name": "Activation",
            "inbound_nodes": [
              [
                [
                  "batch_normalization_16",
                  0,
                  0,
                  {}
                ]
              ]
            ]
          },
          {
            "name": "conv2d_14",
            "config": {
              "kernel_constraint": null,
              "activity_regularizer": null,
              "trainable": true,
              "strides": [
                1,
                1
              ],
              "kernel_size": [
                1,
                1
              ],
              "filters": 48,
              "bias_initializer": {
                "config": {},
                "class_name": "Zeros"
              },
              "kernel_initializer": {
                "config": {
                  "mode": "fan_avg",
                  "distribution": "uniform",
                  "seed": null,
                  "scale": 1.0
                },
                "class_name": "VarianceScaling"
              },
              "name": "conv2d_14",
              "use_bias": false,
              "bias_constraint": null,
              "bias_regularizer": null,
              "data_format": "channels_last",
              "activation": "linear",
              "dilation_rate": [
                1,
                1
              ],
              "kernel_regularizer": null,
              "padding": "same"
            },
            "class_name": "Conv2D",
            "inbound_nodes": [
              [
                [
                  "mixed0",
                  0,
                  0,
                  {}
                ]
              ]
            ]
          },
          {
            "name": "conv2d_17",
            "config": {
              "kernel_constraint": null,
              "activity_regularizer": null,
              "trainable": true,
              "strides": [
                1,
                1
              ],
              "kernel_size": [
                3,
                3
              ],
              "filters": 96,
              "bias_initializer": {
                "config": {},
                "class_name": "Zeros"
              },
              "kernel_initializer": {
                "config": {
                  "mode": "fan_avg",
                  "distribution": "uniform",
                  "seed": null,
                  "scale": 1.0
                },
                "class_name": "VarianceScaling"
              },
              "name": "conv2d_17",
              "use_bias": false,
              "bias_constraint": null,
              "bias_regularizer": null,
              "data_format": "channels_last",
              "activation": "linear",
              "dilation_rate": [
                1,
                1
              ],
              "kernel_regularizer": null,
              "padding": "same"
            },
            "class_name": "Conv2D",
            "inbound_nodes": [
              [
                [
                  "activation_16",
                  0,
                  0,
                  {}
                ]
              ]
            ]
          },
          {
            "name": "batch_normalization_14",
            "config": {
              "moving_variance_initializer": {
                "config": {},
                "class_name": "Ones"
              },
              "trainable": true,
              "gamma_initializer": {
                "config": {},
                "class_name": "Ones"
              },
              "beta_initializer": {
                "config": {},
                "class_name": "Zeros"
              },
              "gamma_constraint": null,
              "gamma_regularizer": null,
              "name": "batch_normalization_14",
              "momentum": 0.99,
              "axis": 3,
              "scale": false,
              "moving_mean_initializer": {
                "config": {},
                "class_name": "Zeros"
              },
              "beta_constraint": null,
              "center": true,
              "beta_regularizer": null,
              "epsilon": 0.001
            },
            "class_name": "BatchNormalization",
            "inbound_nodes": [
              [
                [
                  "conv2d_14",
                  0,
                  0,
                  {}
                ]
              ]
            ]
          },
          {
            "name": "batch_normalization_17",
            "config": {
              "moving_variance_initializer": {
                "config": {},
                "class_name": "Ones"
              },
              "trainable": true,
              "gamma_initializer": {
                "config": {},
                "class_name": "Ones"
              },
              "beta_initializer": {
                "config": {},
                "class_name": "Zeros"
              },
              "gamma_constraint": null,
              "gamma_regularizer": null,
              "name": "batch_normalization_17",
              "momentum": 0.99,
              "axis": 3,
              "scale": false,
              "moving_mean_initializer": {
                "config": {},
                "class_name": "Zeros"
              },
              "beta_constraint": null,
              "center": true,
              "beta_regularizer": null,
              "epsilon": 0.001
            },
            "class_name": "BatchNormalization",
            "inbound_nodes": [
              [
                [
                  "conv2d_17",
                  0,
                  0,
                  {}
                ]
              ]
            ]
          },
          {
            "name": "activation_14",
            "config": {
              "name": "activation_14",
              "activation": "relu",
              "trainable": true
            },
            "class_name": "Activation",
            "inbound_nodes": [
              [
                [
                  "batch_normalization_14",
                  0,
                  0,
                  {}
                ]
              ]
            ]
          },
          {
            "name": "activation_17",
            "config": {
              "name": "activation_17",
              "activation": "relu",
              "trainable": true
            },
            "class_name": "Activation",
            "inbound_nodes": [
              [
                [
                  "batch_normalization_17",
                  0,
                  0,
                  {}
                ]
              ]
            ]
          },
          {
            "name": "average_pooling2d_2",
            "config": {
              "name": "average_pooling2d_2",
              "strides": [
                1,
                1
              ],
              "trainable": true,
              "pool_size": [
                3,
                3
              ],
              "data_format": "channels_last",
              "padding": "same"
            },
            "class_name": "AveragePooling2D",
            "inbound_nodes": [
              [
                [
                  "mixed0",
                  0,
                  0,
                  {}
                ]
              ]
            ]
          },
          {
            "name": "conv2d_13",
            "config": {
              "kernel_constraint": null,
              "activity_regularizer": null,
              "trainable": true,
              "strides": [
                1,
                1
              ],
              "kernel_size": [
                1,
                1
              ],
              "filters": 64,
              "bias_initializer": {
                "config": {},
                "class_name": "Zeros"
              },
              "kernel_initializer": {
                "config": {
                  "mode": "fan_avg",
                  "distribution": "uniform",
                  "seed": null,
                  "scale": 1.0
                },
                "class_name": "VarianceScaling"
              },
              "name": "conv2d_13",
              "use_bias": false,
              "bias_constraint": null,
              "bias_regularizer": null,
              "data_format": "channels_last",
              "activation": "linear",
              "dilation_rate": [
                1,
                1
              ],
              "kernel_regularizer": null,
              "padding": "same"
            },
            "class_name": "Conv2D",
            "inbound_nodes": [
              [
                [
                  "mixed0",
                  0,
                  0,
                  {}
                ]
              ]
            ]
          },
          {
            "name": "conv2d_15",
            "config": {
              "kernel_constraint": null,
              "activity_regularizer": null,
              "trainable": true,
              "strides": [
                1,
                1
              ],
              "kernel_size": [
                5,
                5
              ],
              "filters": 64,
              "bias_initializer": {
                "config": {},
                "class_name": "Zeros"
              },
              "kernel_initializer": {
                "config": {
                  "mode": "fan_avg",
                  "distribution": "uniform",
                  "seed": null,
                  "scale": 1.0
                },
                "class_name": "VarianceScaling"
              },
              "name": "conv2d_15",
              "use_bias": false,
              "bias_constraint": null,
              "bias_regularizer": null,
              "data_format": "channels_last",
              "activation": "linear",
              "dilation_rate": [
                1,
                1
              ],
              "kernel_regularizer": null,
              "padding": "same"
            },
            "class_name": "Conv2D",
            "inbound_nodes": [
              [
                [
                  "activation_14",
                  0,
                  0,
                  {}
                ]
              ]
            ]
          },
          {
            "name": "conv2d_18",
            "config": {
              "kernel_constraint": null,
              "activity_regularizer": null,
              "trainable": true,
              "strides": [
                1,
                1
              ],
              "kernel_size": [
                3,
                3
              ],
              "filters": 96,
              "bias_initializer": {
                "config": {},
                "class_name": "Zeros"
              },
              "kernel_initializer": {
                "config": {
                  "mode": "fan_avg",
                  "distribution": "uniform",
                  "seed": null,
                  "scale": 1.0
                },
                "class_name": "VarianceScaling"
              },
              "name": "conv2d_18",
              "use_bias": false,
              "bias_constraint": null,
              "bias_regularizer": null,
              "data_format": "channels_last",
              "activation": "linear",
              "dilation_rate": [
                1,
                1
              ],
              "kernel_regularizer": null,
              "padding": "same"
            },
            "class_name": "Conv2D",
            "inbound_nodes": [
              [
                [
                  "activation_17",
                  0,
                  0,
                  {}
                ]
              ]
            ]
          },
          {
            "name": "conv2d_19",
            "config": {
              "kernel_constraint": null,
              "activity_regularizer": null,
              "trainable": true,
              "strides": [
                1,
                1
              ],
              "kernel_size": [
                1,
                1
              ],
              "filters": 64,
              "bias_initializer": {
                "config": {},
                "class_name": "Zeros"
              },
              "kernel_initializer": {
                "config": {
                  "mode": "fan_avg",
                  "distribution": "uniform",
                  "seed": null,
                  "scale": 1.0
                },
                "class_name": "VarianceScaling"
              },
              "name": "conv2d_19",
              "use_bias": false,
              "bias_constraint": null,
              "bias_regularizer": null,
              "data_format": "channels_last",
              "activation": "linear",
              "dilation_rate": [
                1,
                1
              ],
              "kernel_regularizer": null,
              "padding": "same"
            },
            "class_name": "Conv2D",
            "inbound_nodes": [
              [
                [
                  "average_pooling2d_2",
                  0,
                  0,
                  {}
                ]
              ]
            ]
          },
          {
            "name": "batch_normalization_13",
            "config": {
              "moving_variance_initializer": {
                "config": {},
                "class_name": "Ones"
              },
              "trainable": true,
              "gamma_initializer": {
                "config": {},
                "class_name": "Ones"
              },
              "beta_initializer": {
                "config": {},
                "class_name": "Zeros"
              },
              "gamma_constraint": null,
              "gamma_regularizer": null,
              "name": "batch_normalization_13",
              "momentum": 0.99,
              "axis": 3,
              "scale": false,
              "moving_mean_initializer": {
                "config": {},
                "class_name": "Zeros"
              },
              "beta_constraint": null,
              "center": true,
              "beta_regularizer": null,
              "epsilon": 0.001
            },
            "class_name": "BatchNormalization",
            "inbound_nodes": [
              [
                [
                  "conv2d_13",
                  0,
                  0,
                  {}
                ]
              ]
            ]
          },
          {
            "name": "batch_normalization_15",
            "config": {
              "moving_variance_initializer": {
                "config": {},
                "class_name": "Ones"
              },
              "trainable": true,
              "gamma_initializer": {
                "config": {},
                "class_name": "Ones"
              },
              "beta_initializer": {
                "config": {},
                "class_name": "Zeros"
              },
              "gamma_constraint": null,
              "gamma_regularizer": null,
              "name": "batch_normalization_15",
              "momentum": 0.99,
              "axis": 3,
              "scale": false,
              "moving_mean_initializer": {
                "config": {},
                "class_name": "Zeros"
              },
              "beta_constraint": null,
              "center": true,
              "beta_regularizer": null,
              "epsilon": 0.001
            },
            "class_name": "BatchNormalization",
            "inbound_nodes": [
              [
                [
                  "conv2d_15",
                  0,
                  0,
                  {}
                ]
              ]
            ]
          },
          {
            "name": "batch_normalization_18",
            "config": {
              "moving_variance_initializer": {
                "config": {},
                "class_name": "Ones"
              },
              "trainable": true,
              "gamma_initializer": {
                "config": {},
                "class_name": "Ones"
              },
              "beta_initializer": {
                "config": {},
                "class_name": "Zeros"
              },
              "gamma_constraint": null,
              "gamma_regularizer": null,
              "name": "batch_normalization_18",
              "momentum": 0.99,
              "axis": 3,
              "scale": false,
              "moving_mean_initializer": {
                "config": {},
                "class_name": "Zeros"
              },
              "beta_constraint": null,
              "center": true,
              "beta_regularizer": null,
              "epsilon": 0.001
            },
            "class_name": "BatchNormalization",
            "inbound_nodes": [
              [
                [
                  "conv2d_18",
                  0,
                  0,
                  {}
                ]
              ]
            ]
          },
          {
            "name": "batch_normalization_19",
            "config": {
              "moving_variance_initializer": {
                "config": {},
                "class_name": "Ones"
              },
              "trainable": true,
              "gamma_initializer": {
                "config": {},
                "class_name": "Ones"
              },
              "beta_initializer": {
                "config": {},
                "class_name": "Zeros"
              },
              "gamma_constraint": null,
              "gamma_regularizer": null,
              "name": "batch_normalization_19",
              "momentum": 0.99,
              "axis": 3,
              "scale": false,
              "moving_mean_initializer": {
                "config": {},
                "class_name": "Zeros"
              },
              "beta_constraint": null,
              "center": true,
              "beta_regularizer": null,
              "epsilon": 0.001
            },
            "class_name": "BatchNormalization",
            "inbound_nodes": [
              [
                [
                  "conv2d_19",
                  0,
                  0,
                  {}
                ]
              ]
            ]
          },
          {
            "name": "activation_13",
            "config": {
              "name": "activation_13",
              "activation": "relu",
              "trainable": true
            },
            "class_name": "Activation",
            "inbound_nodes": [
              [
                [
                  "batch_normalization_13",
                  0,
                  0,
                  {}
                ]
              ]
            ]
          },
          {
            "name": "activation_15",
            "config": {
              "name": "activation_15",
              "activation": "relu",
              "trainable": true
            },
            "class_name": "Activation",
            "inbound_nodes": [
              [
                [
                  "batch_normalization_15",
                  0,
                  0,
                  {}
                ]
              ]
            ]
          },
          {
            "name": "activation_18",
            "config": {
              "name": "activation_18",
              "activation": "relu",
              "trainable": true
            },
            "class_name": "Activation",
            "inbound_nodes": [
              [
                [
                  "batch_normalization_18",
                  0,
                  0,
                  {}
                ]
              ]
            ]
          },
          {
            "name": "activation_19",
            "config": {
              "name": "activation_19",
              "activation": "relu",
              "trainable": true
            },
            "class_name": "Activation",
            "inbound_nodes": [
              [
                [
                  "batch_normalization_19",
                  0,
                  0,
                  {}
                ]
              ]
            ]
          },
          {
            "name": "mixed1",
            "config": {
              "name": "mixed1",
              "axis": 3,
              "trainable": true
            },
            "class_name": "Concatenate",
            "inbound_nodes": [
              [
                [
                  "activation_13",
                  0,
                  0,
                  {}
                ],
                [
                  "activation_15",
                  0,
                  0,
                  {}
                ],
                [
                  "activation_18",
                  0,
                  0,
                  {}
                ],
                [
                  "activation_19",
                  0,
                  0,
                  {}
                ]
              ]
            ]
          },
          {
            "name": "conv2d_23",
            "config": {
              "kernel_constraint": null,
              "activity_regularizer": null,
              "trainable": true,
              "strides": [
                1,
                1
              ],
              "kernel_size": [
                1,
                1
              ],
              "filters": 64,
              "bias_initializer": {
                "config": {},
                "class_name": "Zeros"
              },
              "kernel_initializer": {
                "config": {
                  "mode": "fan_avg",
                  "distribution": "uniform",
                  "seed": null,
                  "scale": 1.0
                },
                "class_name": "VarianceScaling"
              },
              "name": "conv2d_23",
              "use_bias": false,
              "bias_constraint": null,
              "bias_regularizer": null,
              "data_format": "channels_last",
              "activation": "linear",
              "dilation_rate": [
                1,
                1
              ],
              "kernel_regularizer": null,
              "padding": "same"
            },
            "class_name": "Conv2D",
            "inbound_nodes": [
              [
                [
                  "mixed1",
                  0,
                  0,
                  {}
                ]
              ]
            ]
          },
          {
            "name": "batch_normalization_23",
            "config": {
              "moving_variance_initializer": {
                "config": {},
                "class_name": "Ones"
              },
              "trainable": true,
              "gamma_initializer": {
                "config": {},
                "class_name": "Ones"
              },
              "beta_initializer": {
                "config": {},
                "class_name": "Zeros"
              },
              "gamma_constraint": null,
              "gamma_regularizer": null,
              "name": "batch_normalization_23",
              "momentum": 0.99,
              "axis": 3,
              "scale": false,
              "moving_mean_initializer": {
                "config": {},
                "class_name": "Zeros"
              },
              "beta_constraint": null,
              "center": true,
              "beta_regularizer": null,
              "epsilon": 0.001
            },
            "class_name": "BatchNormalization",
            "inbound_nodes": [
              [
                [
                  "conv2d_23",
                  0,
                  0,
                  {}
                ]
              ]
            ]
          },
          {
            "name": "activation_23",
            "config": {
              "name": "activation_23",
              "activation": "relu",
              "trainable": true
            },
            "class_name": "Activation",
            "inbound_nodes": [
              [
                [
                  "batch_normalization_23",
                  0,
                  0,
                  {}
                ]
              ]
            ]
          },
          {
            "name": "conv2d_21",
            "config": {
              "kernel_constraint": null,
              "activity_regularizer": null,
              "trainable": true,
              "strides": [
                1,
                1
              ],
              "kernel_size": [
                1,
                1
              ],
              "filters": 48,
              "bias_initializer": {
                "config": {},
                "class_name": "Zeros"
              },
              "kernel_initializer": {
                "config": {
                  "mode": "fan_avg",
                  "distribution": "uniform",
                  "seed": null,
                  "scale": 1.0
                },
                "class_name": "VarianceScaling"
              },
              "name": "conv2d_21",
              "use_bias": false,
              "bias_constraint": null,
              "bias_regularizer": null,
              "data_format": "channels_last",
              "activation": "linear",
              "dilation_rate": [
                1,
                1
              ],
              "kernel_regularizer": null,
              "padding": "same"
            },
            "class_name": "Conv2D",
            "inbound_nodes": [
              [
                [
                  "mixed1",
                  0,
                  0,
                  {}
                ]
              ]
            ]
          },
          {
…
              "bias_constraint": null,
              "bias_regularizer": null,
              "data_format": "channels_last",
              "activation": "linear",
              "dilation_rate": [
                1,
                1
              ],
              "kernel_regularizer": null,
              "padding": "same"
            },
            "class_name": "Conv2D",
            "inbound_nodes": [
              [
                [
                  "mixed8",
                  0,
                  0,
                  {}
                ]
              ]
            ]
          },
          {
            "name": "batch_normalization_79",
            "config": {
              "moving_variance_initializer": {
                "config": {},
                "class_name": "Ones"
              },
              "trainable": true,
              "gamma_initializer": {
                "config": {},
                "class_name": "Ones"
              },
              "beta_initializer": {
                "config": {},
                "class_name": "Zeros"
              },
              "gamma_constraint": null,
              "gamma_regularizer": null,
              "name": "batch_normalization_79",
              "momentum": 0.99,
              "axis": 3,
              "scale": false,
              "moving_mean_initializer": {
                "config": {},
                "class_name": "Zeros"
              },
              "beta_constraint": null,
              "center": true,
              "beta_regularizer": null,
              "epsilon": 0.001
            },
            "class_name": "BatchNormalization",
            "inbound_nodes": [
              [
                [
                  "conv2d_79",
                  0,
                  0,
                  {}
                ]
              ]
            ]
          },
          {
            "name": "batch_normalization_80",
            "config": {
              "moving_variance_initializer": {
                "config": {},
                "class_name": "Ones"
              },
              "trainable": true,
              "gamma_initializer": {
                "config": {},
                "class_name": "Ones"
              },
              "beta_initializer": {
                "config": {},
                "class_name": "Zeros"
              },
              "gamma_constraint": null,
              "gamma_regularizer": null,
              "name": "batch_normalization_80",
              "momentum": 0.99,
              "axis": 3,
              "scale": false,
              "moving_mean_initializer": {
                "config": {},
                "class_name": "Zeros"
              },
              "beta_constraint": null,
              "center": true,
              "beta_regularizer": null,
              "epsilon": 0.001
            },
            "class_name": "BatchNormalization",
            "inbound_nodes": [
              [
                [
                  "conv2d_80",
                  0,
                  0,
                  {}
                ]
              ]
            ]
          },
          {
            "name": "batch_normalization_83",
            "config": {
              "moving_variance_initializer": {
                "config": {},
                "class_name": "Ones"
              },
              "trainable": true,
              "gamma_initializer": {
                "config": {},
                "class_name": "Ones"
              },
              "beta_initializer": {
                "config": {},
                "class_name": "Zeros"
              },
              "gamma_constraint": null,
              "gamma_regularizer": null,
              "name": "batch_normalization_83",
              "momentum": 0.99,
              "axis": 3,
              "scale": false,
              "moving_mean_initializer": {
                "config": {},
                "class_name": "Zeros"
              },
              "beta_constraint": null,
              "center": true,
              "beta_regularizer": null,
              "epsilon": 0.001
            },
            "class_name": "BatchNormalization",
            "inbound_nodes": [
              [
                [
                  "conv2d_83",
                  0,
                  0,
                  {}
                ]
              ]
            ]
          },
          {
            "name": "batch_normalization_84",
            "config": {
              "moving_variance_initializer": {
                "config": {},
                "class_name": "Ones"
              },
              "trainable": true,
              "gamma_initializer": {
                "config": {},
                "class_name": "Ones"
              },
              "beta_initializer": {
                "config": {},
                "class_name": "Zeros"
              },
              "gamma_constraint": null,
              "gamma_regularizer": null,
              "name": "batch_normalization_84",
              "momentum": 0.99,
              "axis": 3,
              "scale": false,
              "moving_mean_initializer": {
                "config": {},
                "class_name": "Zeros"
              },
              "beta_constraint": null,
              "center": true,
              "beta_regularizer": null,
              "epsilon": 0.001
            },
            "class_name": "BatchNormalization",
            "inbound_nodes": [
              [
                [
                  "conv2d_84",
                  0,
                  0,
                  {}
                ]
              ]
            ]
          },
          {
            "name": "conv2d_85",
            "config": {
              "kernel_constraint": null,
              "activity_regularizer": null,
              "trainable": true,
              "strides": [
                1,
                1
              ],
              "kernel_size": [
                1,
                1
              ],
              "filters": 192,
              "bias_initializer": {
                "config": {},
                "class_name": "Zeros"
              },
              "kernel_initializer": {
                "config": {
                  "mode": "fan_avg",
                  "distribution": "uniform",
                  "seed": null,
                  "scale": 1.0
                },
                "class_name": "VarianceScaling"
              },
              "name": "conv2d_85",
              "use_bias": false,
              "bias_constraint": null,
              "bias_regularizer": null,
              "data_format": "channels_last",
              "activation": "linear",
              "dilation_rate": [
                1,
                1
              ],
              "kernel_regularizer": null,
              "padding": "same"
            },
            "class_name": "Conv2D",
            "inbound_nodes": [
              [
                [
                  "average_pooling2d_8",
                  0,
                  0,
                  {}
                ]
              ]
            ]
          },
          {
            "name": "batch_normalization_77",
            "config": {
              "moving_variance_initializer": {
                "config": {},
                "class_name": "Ones"
              },
              "trainable": true,
              "gamma_initializer": {
                "config": {},
                "class_name": "Ones"
              },
              "beta_initializer": {
                "config": {},
                "class_name": "Zeros"
              },
              "gamma_constraint": null,
              "gamma_regularizer": null,
              "name": "batch_normalization_77",
              "momentum": 0.99,
              "axis": 3,
              "scale": false,
              "moving_mean_initializer": {
                "config": {},
                "class_name": "Zeros"
              },
              "beta_constraint": null,
              "center": true,
              "beta_regularizer": null,
              "epsilon": 0.001
            },
            "class_name": "BatchNormalization",
            "inbound_nodes": [
              [
                [
                  "conv2d_77",
                  0,
                  0,
                  {}
                ]
              ]
            ]
          },
          {
            "name": "activation_79",
            "config": {
              "name": "activation_79",
              "activation": "relu",
              "trainable": true
            },
            "class_name": "Activation",
            "inbound_nodes": [
              [
                [
                  "batch_normalization_79",
                  0,
                  0,
                  {}
                ]
              ]
            ]
          },
          {
            "name": "activation_80",
            "config": {
              "name": "activation_80",
              "activation": "relu",
              "trainable": true
            },
            "class_name": "Activation",
            "inbound_nodes": [
              [
                [
                  "batch_normalization_80",
                  0,
                  0,
                  {}
                ]
              ]
            ]
          },
          {
            "name": "activation_83",
            "config": {
              "name": "activation_83",
              "activation": "relu",
              "trainable": true
            },
            "class_name": "Activation",
            "inbound_nodes": [
              [
                [
                  "batch_normalization_83",
                  0,
                  0,
                  {}
                ]
              ]
            ]
          },
          {
            "name": "activation_84",
            "config": {
              "name": "activation_84",
              "activation": "relu",
              "trainable": true
            },
            "class_name": "Activation",
            "inbound_nodes": [
              [
                [
                  "batch_normalization_84",
                  0,
                  0,
                  {}
                ]
              ]
            ]
          },
          {
            "name": "batch_normalization_85",
            "config": {
              "moving_variance_initializer": {
                "config": {},
                "class_name": "Ones"
              },
              "trainable": true,
              "gamma_initializer": {
                "config": {},
                "class_name": "Ones"
              },
              "beta_initializer": {
                "config": {},
                "class_name": "Zeros"
              },
              "gamma_constraint": null,
              "gamma_regularizer": null,
              "name": "batch_normalization_85",
              "momentum": 0.99,
              "axis": 3,
              "scale": false,
              "moving_mean_initializer": {
                "config": {},
                "class_name": "Zeros"
              },
              "beta_constraint": null,
              "center": true,
              "beta_regularizer": null,
              "epsilon": 0.001
            },
            "class_name": "BatchNormalization",
            "inbound_nodes": [
              [
                [
                  "conv2d_85",
                  0,
                  0,
                  {}
                ]
              ]
            ]
          },
          {
            "name": "activation_77",
            "config": {
              "name": "activation_77",
              "activation": "relu",
              "trainable": true
            },
            "class_name": "Activation",
            "inbound_nodes": [
              [
                [
                  "batch_normalization_77",
                  0,
                  0,
                  {}
                ]
              ]
            ]
          },
          {
            "name": "mixed9_0",
            "config": {
              "name": "mixed9_0",
              "axis": 3,
              "trainable": true
            },
            "class_name": "Concatenate",
            "inbound_nodes": [
              [
                [
                  "activation_79",
                  0,
                  0,
                  {}
                ],
                [
                  "activation_80",
                  0,
                  0,
                  {}
                ]
              ]
            ]
          },
          {
            "name": "concatenate_1",
            "config": {
              "name": "concatenate_1",
              "axis": 3,
              "trainable": true
            },
            "class_name": "Concatenate",
            "inbound_nodes": [
              [
                [
                  "activation_83",
                  0,
                  0,
                  {}
                ],
                [
                  "activation_84",
                  0,
                  0,
                  {}
                ]
              ]
            ]
          },
          {
            "name": "activation_85",
            "config": {
              "name": "activation_85",
              "activation": "relu",
              "trainable": true
            },
            "class_name": "Activation",
            "inbound_nodes": [
              [
                [
                  "batch_normalization_85",
                  0,
                  0,
                  {}
                ]
              ]
            ]
          },
          {
            "name": "mixed9",
            "config": {
              "name": "mixed9",
              "axis": 3,
              "trainable": true
            },
            "class_name": "Concatenate",
            "inbound_nodes": [
              [
                [
                  "activation_77",
                  0,
                  0,
                  {}
                ],
                [
                  "mixed9_0",
                  0,
                  0,
                  {}
                ],
                [
                  "concatenate_1",
                  0,
                  0,
                  {}
                ],
                [
                  "activation_85",
                  0,
                  0,
                  {}
                ]
              ]
            ]
          },
          {
            "name": "conv2d_90",
            "config": {
              "kernel_constraint": null,
              "activity_regularizer": null,
              "trainable": true,
              "strides": [
                1,
                1
              ],
              "kernel_size": [
                1,
                1
              ],
              "filters": 448,
              "bias_initializer": {
                "config": {},
                "class_name": "Zeros"
              },
              "kernel_initializer": {
                "config": {
                  "mode": "fan_avg",
                  "distribution": "uniform",
                  "seed": null,
                  "scale": 1.0
                },
                "class_name": "VarianceScaling"
              },
              "name": "conv2d_90",
              "use_bias": false,
              "bias_constraint": null,
              "bias_regularizer": null,
              "data_format": "channels_last",
              "activation": "linear",
              "dilation_rate": [
                1,
                1
              ],
              "kernel_regularizer": null,
              "padding": "same"
            },
            "class_name": "Conv2D",
            "inbound_nodes": [
              [
                [
                  "mixed9",
                  0,
                  0,
                  {}
                ]
              ]
            ]
          },
          {
            "name": "batch_normalization_90",
            "config": {
              "moving_variance_initializer": {
                "config": {},
                "class_name": "Ones"
              },
              "trainable": true,
              "gamma_initializer": {
                "config": {},
                "class_name": "Ones"
              },
              "beta_initializer": {
                "config": {},
                "class_name": "Zeros"
              },
              "gamma_constraint": null,
              "gamma_regularizer": null,
              "name": "batch_normalization_90",
              "momentum": 0.99,
              "axis": 3,
              "scale": false,
              "moving_mean_initializer": {
                "config": {},
                "class_name": "Zeros"
              },
              "beta_constraint": null,
              "center": true,
              "beta_regularizer": null,
              "epsilon": 0.001
            },
            "class_name": "BatchNormalization",
            "inbound_nodes": [
              [
                [
                  "conv2d_90",
                  0,
                  0,
                  {}
                ]
              ]
            ]
          },
          {
            "name": "activation_90",
            "config": {
              "name": "activation_90",
              "activation": "relu",
              "trainable": true
            },
            "class_name": "Activation",
            "inbound_nodes": [
              [
                [
                  "batch_normalization_90",
                  0,
                  0,
                  {}
                ]
              ]
            ]
          },
          {
            "name": "conv2d_87",
            "config": {
              "kernel_constraint": null,
              "activity_regularizer": null,
              "trainable": true,
              "strides": [
                1,
                1
              ],
              "kernel_size": [
                1,
                1
              ],
              "filters": 384,
              "bias_initializer": {
                "config": {},
                "class_name": "Zeros"
              },
              "kernel_initializer": {
                "config": {
                  "mode": "fan_avg",
                  "distribution": "uniform",
                  "seed": null,
                  "scale": 1.0
                },
                "class_name": "VarianceScaling"
              },
              "name": "conv2d_87",
              "use_bias": false,
              "bias_constraint": null,
              "bias_regularizer": null,
              "data_format": "channels_last",
              "activation": "linear",
              "dilation_rate": [
                1,
                1
              ],
              "kernel_regularizer": null,
              "padding": "same"
            },
            "class_name": "Conv2D",
            "inbound_nodes": [
              [
                [
                  "mixed9",
                  0,
                  0,
                  {}
                ]
              ]
            ]
          },
          {
            "name": "conv2d_91",
            "config": {
              "kernel_constraint": null,
              "activity_regularizer": null,
              "trainable": true,
              "strides": [
                1,
                1
              ],
              "kernel_size": [
                3,
                3
              ],
              "filters": 384,
              "bias_initializer": {
                "config": {},
                "class_name": "Zeros"
              },
              "kernel_initializer": {
                "config": {
                  "mode": "fan_avg",
                  "distribution": "uniform",
                  "seed": null,
                  "scale": 1.0
                },
                "class_name": "VarianceScaling"
              },
              "name": "conv2d_91",
              "use_bias": false,
              "bias_constraint": null,
              "bias_regularizer": null,
              "data_format": "channels_last",
              "activation": "linear",
              "dilation_rate": [
                1,
                1
              ],
              "kernel_regularizer": null,
              "padding": "same"
            },
            "class_name": "Conv2D",
            "inbound_nodes": [
              [
                [
                  "activation_90",
                  0,
                  0,
                  {}
                ]
              ]
            ]
          },
          {
            "name": "batch_normalization_87",
            "config": {
              "moving_variance_initializer": {
                "config": {},
                "class_name": "Ones"
              },
              "trainable": true,
              "gamma_initializer": {
                "config": {},
                "class_name": "Ones"
              },
              "beta_initializer": {
                "config": {},
                "class_name": "Zeros"
              },
              "gamma_constraint": null,
              "gamma_regularizer": null,
              "name": "batch_normalization_87",
              "momentum": 0.99,
              "axis": 3,
              "scale": false,
              "moving_mean_initializer": {
                "config": {},
                "class_name": "Zeros"
              },
              "beta_constraint": null,
              "center": true,
              "beta_regularizer": null,
              "epsilon": 0.001
            },
            "class_name": "BatchNormalization",
            "inbound_nodes": [
              [
                [
                  "conv2d_87",
                  0,
                  0,
                  {}
                ]
              ]
            ]
          },
          {
            "name": "batch_normalization_91",
            "config": {
              "moving_variance_initializer": {
                "config": {},
                "class_name": "Ones"
              },
              "trainable": true,
              "gamma_initializer": {
                "config": {},
                "class_name": "Ones"
              },
              "beta_initializer": {
                "config": {},
                "class_name": "Zeros"
              },
              "gamma_constraint": null,
              "gamma_regularizer": null,
              "name": "batch_normalization_91",
              "momentum": 0.99,
              "axis": 3,
              "scale": false,
              "moving_mean_initializer": {
                "config": {},
                "class_name": "Zeros"
              },
              "beta_constraint": null,
              "center": true,
              "beta_regularizer": null,
              "epsilon": 0.001
            },
            "class_name": "BatchNormalization",
            "inbound_nodes": [
              [
                [
                  "conv2d_91",
                  0,
                  0,
                  {}
                ]
              ]
            ]
          },
          {
            "name": "activation_87",
            "config": {
              "name": "activation_87",
              "activation": "relu",
              "trainable": true
            },
            "class_name": "Activation",
            "inbound_nodes": [
              [
                [
                  "batch_normalization_87",
                  0,
                  0,
                  {}
                ]
              ]
            ]
          },
          {
            "name": "activation_91",
            "config": {
              "name": "activation_91",
              "activation": "relu",
              "trainable": true
            },
            "class_name": "Activation",
            "inbound_nodes": [
              [
                [
                  "batch_normalization_91",
                  0,
                  0,
                  {}
                ]
              ]
            ]
          },
          {
            "name": "conv2d_88",
            "config": {
              "kernel_constraint": null,
              "activity_regularizer": null,
              "trainable": true,
              "strides": [
                1,
                1
              ],
              "kernel_size": [
                1,
                3
              ],
              "filters": 384,
              "bias_initializer": {
                "config": {},
                "class_name": "Zeros"
              },
              "kernel_initializer": {
                "config": {
                  "mode": "fan_avg",
                  "distribution": "uniform",
                  "seed": null,
                  "scale": 1.0
                },
                "class_name": "VarianceScaling"
              },
              "name": "conv2d_88",
              "use_bias": false,
              "bias_constraint": null,
              "bias_regularizer": null,
              "data_format": "channels_last",
              "activation": "linear",
              "dilation_rate": [
                1,
                1
              ],
              "kernel_regularizer": null,
              "padding": "same"
            },
            "class_name": "Conv2D",
            "inbound_nodes": [
              [
                [
                  "activation_87",
                  0,
                  0,
                  {}
                ]
              ]
            ]
          },
          {
            "name": "conv2d_89",
            "config": {
              "kernel_constraint": null,
              "activity_regularizer": null,
              "trainable": true,
              "strides": [
                1,
                1
              ],
              "kernel_size": [
                3,
                1
              ],
              "filters": 384,
              "bias_initializer": {
                "config": {},
                "class_name": "Zeros"
              },
              "kernel_initializer": {
                "config": {
                  "mode": "fan_avg",
                  "distribution": "uniform",
                  "seed": null,
                  "scale": 1.0
                },
                "class_name": "VarianceScaling"
              },
              "name": "conv2d_89",
              "use_bias": false,
              "bias_constraint": null,
              "bias_regularizer": null,
              "data_format": "channels_last",
              "activation": "linear",
              "dilation_rate": [
                1,
                1
              ],
              "kernel_regularizer": null,
              "padding": "same"
            },
            "class_name": "Conv2D",
            "inbound_nodes": [
              [
                [
                  "activation_87",
                  0,
                  0,
                  {}
                ]
              ]
            ]
          },
          {
            "name": "conv2d_92",
            "config": {
              "kernel_constraint": null,
              "activity_regularizer": null,
              "trainable": true,
              "strides": [
                1,
                1
              ],
              "kernel_size": [
                1,
                3
              ],
              "filters": 384,
              "bias_initializer": {
                "config": {},
                "class_name": "Zeros"
              },
              "kernel_initializer": {
                "config": {
                  "mode": "fan_avg",
                  "distribution": "uniform",
                  "seed": null,
                  "scale": 1.0
                },
                "class_name": "VarianceScaling"
              },
              "name": "conv2d_92",
              "use_bias": false,
              "bias_constraint": null,
              "bias_regularizer": null,
              "data_format": "channels_last",
              "activation": "linear",
              "dilation_rate": [
                1,
                1
              ],
              "kernel_regularizer": null,
              "padding": "same"
            },
            "class_name": "Conv2D",
            "inbound_nodes": [
              [
                [
                  "activation_91",
                  0,
                  0,
                  {}
                ]
              ]
            ]
          },
          {
            "name": "conv2d_93",
            "config": {
              "kernel_constraint": null,
              "activity_regularizer": null,
              "trainable": true,
              "strides": [
                1,
                1
              ],
              "kernel_size": [
                3,
                1
              ],
              "filters": 384,
              "bias_initializer": {
                "config": {},
                "class_name": "Zeros"
              },
              "kernel_initializer": {
                "config": {
                  "mode": "fan_avg",
                  "distribution": "uniform",
                  "seed": null,
                  "scale": 1.0
                },
                "class_name": "VarianceScaling"
              },
              "name": "conv2d_93",
              "use_bias": false,
              "bias_constraint": null,
              "bias_regularizer": null,
              "data_format": "channels_last",
              "activation": "linear",
              "dilation_rate": [
                1,
                1
              ],
              "kernel_regularizer": null,
              "padding": "same"
            },
            "class_name": "Conv2D",
            "inbound_nodes": [
              [
                [
                  "activation_91",
                  0,
                  0,
                  {}
                ]
              ]
            ]
          },
          {
            "name": "average_pooling2d_9",
            "config": {
              "name": "average_pooling2d_9",
              "strides": [
                1,
                1
              ],
              "trainable": true,
              "pool_size": [
                3,
                3
              ],
              "data_format": "channels_last",
              "padding": "same"
            },
            "class_name": "AveragePooling2D",
            "inbound_nodes": [
              [
                [
                  "mixed9",
                  0,
                  0,
                  {}
                ]
              ]
            ]
          },
          {
            "name": "conv2d_86",
            "config": {
              "kernel_constraint": null,
              "activity_regularizer": null,
              "trainable": true,
              "strides": [
                1,
                1
              ],
              "kernel_size": [
                1,
                1
              ],
              "filters": 320,
              "bias_initializer": {
                "config": {},
                "class_name": "Zeros"
              },
              "kernel_initializer": {
                "config": {
                  "mode": "fan_avg",
                  "distribution": "uniform",
                  "seed": null,
                  "scale": 1.0
                },
                "class_name": "VarianceScaling"
              },
              "name": "conv2d_86",
              "use_bias": false,
              "bias_constraint": null,
              "bias_regularizer": null,
              "data_format": "channels_last",
              "activation": "linear",
              "dilation_rate": [
                1,
                1
              ],
              "kernel_regularizer": null,
              "padding": "same"
            },
            "class_name": "Conv2D",
            "inbound_nodes": [
              [
                [
                  "mixed9",
                  0,
                  0,
                  {}
                ]
              ]
            ]
          },
          {
            "name": "batch_normalization_88",
            "config": {
              "moving_variance_initializer": {
                "config": {},
                "class_name": "Ones"
              },
              "trainable": true,
              "gamma_initializer": {
                "config": {},
                "class_name": "Ones"
              },
              "beta_initializer": {
                "config": {},
                "class_name": "Zeros"
              },
              "gamma_constraint": null,
              "gamma_regularizer": null,
              "name": "batch_normalization_88",
              "momentum": 0.99,
              "axis": 3,
              "scale": false,
              "moving_mean_initializer": {
                "config": {},
                "class_name": "Zeros"
              },
              "beta_constraint": null,
              "center": true,
              "beta_regularizer": null,
              "epsilon": 0.001
            },
            "class_name": "BatchNormalization",
            "inbound_nodes": [
              [
                [
                  "conv2d_88",
                  0,
                  0,
                  {}
                ]
              ]
            ]
          },
          {
            "name": "batch_normalization_89",
            "config": {
              "moving_variance_initializer": {
                "config": {},
                "class_name": "Ones"
              },
              "trainable": true,
              "gamma_initializer": {
                "config": {},
                "class_name": "Ones"
              },
              "beta_initializer": {
                "config": {},
                "class_name": "Zeros"
              },
              "gamma_constraint": null,
              "gamma_regularizer": null,
              "name": "batch_normalization_89",
              "momentum": 0.99,
              "axis": 3,
              "scale": false,
              "moving_mean_initializer": {
                "config": {},
                "class_name": "Zeros"
              },
              "beta_constraint": null,
              "center": true,
              "beta_regularizer": null,
              "epsilon": 0.001
            },
            "class_name": "BatchNormalization",
            "inbound_nodes": [
              [
                [
                  "conv2d_89",
                  0,
                  0,
                  {}
                ]
              ]
            ]
          },
          {
            "name": "batch_normalization_92",
            "config": {
              "moving_variance_initializer": {
                "config": {},
                "class_name": "Ones"
              },
              "trainable": true,
              "gamma_initializer": {
                "config": {},
                "class_name": "Ones"
              },
              "beta_initializer": {
                "config": {},
                "class_name": "Zeros"
              },
              "gamma_constraint": null,
              "gamma_regularizer": null,
              "name": "batch_normalization_92",
              "momentum": 0.99,
              "axis": 3,
              "scale": false,
              "moving_mean_initializer": {
                "config": {},
                "class_name": "Zeros"
              },
              "beta_constraint": null,
              "center": true,
              "beta_regularizer": null,
              "epsilon": 0.001
            },
            "class_name": "BatchNormalization",
            "inbound_nodes": [
              [
                [
                  "conv2d_92",
                  0,
                  0,
                  {}
                ]
              ]
            ]
          },
          {
            "name": "batch_normalization_93",
            "config": {
              "moving_variance_initializer": {
                "config": {},
                "class_name": "Ones"
              },
              "trainable": true,
              "gamma_initializer": {
                "config": {},
                "class_name": "Ones"
              },
              "beta_initializer": {
                "config": {},
                "class_name": "Zeros"
              },
              "gamma_constraint": null,
              "gamma_regularizer": null,
              "name": "batch_normalization_93",
              "momentum": 0.99,
              "axis": 3,
              "scale": false,
              "moving_mean_initializer": {
                "config": {},
                "class_name": "Zeros"
              },
              "beta_constraint": null,
              "center": true,
              "beta_regularizer": null,
              "epsilon": 0.001
            },
            "class_name": "BatchNormalization",
            "inbound_nodes": [
              [
                [
                  "conv2d_93",
                  0,
                  0,
                  {}
                ]
              ]
            ]
          },
          {
            "name": "conv2d_94",
            "config": {
              "kernel_constraint": null,
              "activity_regularizer": null,
              "trainable": true,
              "strides": [
                1,
                1
              ],
              "kernel_size": [
                1,
                1
              ],
              "filters": 192,
              "bias_initializer": {
                "config": {},
                "class_name": "Zeros"
              },
              "kernel_initializer": {
                "config": {
                  "mode": "fan_avg",
                  "distribution": "uniform",
                  "seed": null,
                  "scale": 1.0
                },
                "class_name": "VarianceScaling"
              },
              "name": "conv2d_94",
              "use_bias": false,
              "bias_constraint": null,
              "bias_regularizer": null,
              "data_format": "channels_last",
              "activation": "linear",
              "dilation_rate": [
                1,
                1
              ],
              "kernel_regularizer": null,
              "padding": "same"
            },
            "class_name": "Conv2D",
            "inbound_nodes": [
              [
                [
                  "average_pooling2d_9",
                  0,
                  0,
                  {}
                ]
              ]
            ]
          },
          {
            "name": "batch_normalization_86",
            "config": {
              "moving_variance_initializer": {
                "config": {},
                "class_name": "Ones"
              },
              "trainable": true,
              "gamma_initializer": {
                "config": {},
                "class_name": "Ones"
              },
              "beta_initializer": {
                "config": {},
                "class_name": "Zeros"
              },
              "gamma_constraint": null,
              "gamma_regularizer": null,
              "name": "batch_normalization_86",
              "momentum": 0.99,
              "axis": 3,
              "scale": false,
              "moving_mean_initializer": {
                "config": {},
                "class_name": "Zeros"
              },
              "beta_constraint": null,
              "center": true,
              "beta_regularizer": null,
              "epsilon": 0.001
            },
            "class_name": "BatchNormalization",
            "inbound_nodes": [
              [
                [
                  "conv2d_86",
                  0,
                  0,
                  {}
                ]
              ]
            ]
          },
          {
            "name": "activation_88",
            "config": {
              "name": "activation_88",
              "activation": "relu",
              "trainable": true
            },
            "class_name": "Activation",
            "inbound_nodes": [
              [
                [
                  "batch_normalization_88",
                  0,
                  0,
                  {}
                ]
              ]
            ]
          },
          {
            "name": "activation_89",
            "config": {
              "name": "activation_89",
              "activation": "relu",
              "trainable": true
            },
            "class_name": "Activation",
            "inbound_nodes": [
              [
                [
                  "batch_normalization_89",
                  0,
                  0,
                  {}
                ]
              ]
            ]
          },
          {
            "name": "activation_92",
            "config": {
              "name": "activation_92",
              "activation": "relu",
              "trainable": true
            },
            "class_name": "Activation",
            "inbound_nodes": [
              [
                [
                  "batch_normalization_92",
                  0,
                  0,
                  {}
                ]
              ]
            ]
          },
          {
            "name": "activation_93",
            "config": {
              "name": "activation_93",
              "activation": "relu",
              "trainable": true
            },
            "class_name": "Activation",
            "inbound_nodes": [
              [
                [
                  "batch_normalization_93",
                  0,
                  0,
                  {}
                ]
              ]
            ]
          },
          {
            "name": "batch_normalization_94",
            "config": {
              "moving_variance_initializer": {
                "config": {},
                "class_name": "Ones"
              },
              "trainable": true,
              "gamma_initializer": {
                "config": {},
                "class_name": "Ones"
              },
              "beta_initializer": {
                "config": {},
                "class_name": "Zeros"
              },
              "gamma_constraint": null,
              "gamma_regularizer": null,
              "name": "batch_normalization_94",
              "momentum": 0.99,
              "axis": 3,
              "scale": false,
              "moving_mean_initializer": {
                "config": {},
                "class_name": "Zeros"
              },
              "beta_constraint": null,
              "center": true,
              "beta_regularizer": null,
              "epsilon": 0.001
            },
            "class_name": "BatchNormalization",
            "inbound_nodes": [
              [
                [
                  "conv2d_94",
                  0,
                  0,
                  {}
                ]
              ]
            ]
          },
          {
            "name": "activation_86",
            "config": {
              "name": "activation_86",
              "activation": "relu",
              "trainable": true
            },
            "class_name": "Activation",
            "inbound_nodes": [
              [
                [
                  "batch_normalization_86",
                  0,
                  0,
                  {}
                ]
              ]
            ]
          },
          {
            "name": "mixed9_1",
            "config": {
              "name": "mixed9_1",
              "axis": 3,
              "trainable": true
            },
            "class_name": "Concatenate",
            "inbound_nodes": [
              [
                [
                  "activation_88",
                  0,
                  0,
                  {}
                ],
                [
                  "activation_89",
                  0,
                  0,
                  {}
                ]
              ]
            ]
          },
          {
            "name": "concatenate_2",
            "config": {
              "name": "concatenate_2",
              "axis": 3,
              "trainable": true
            },
            "class_name": "Concatenate",
            "inbound_nodes": [
              [
                [
                  "activation_92",
                  0,
                  0,
                  {}
                ],
                [
                  "activation_93",
                  0,
                  0,
                  {}
                ]
              ]
            ]
          },
          {
            "name": "activation_94",
            "config": {
              "name": "activation_94",
              "activation": "relu",
              "trainable": true
            },
            "class_name": "Activation",
            "inbound_nodes": [
              [
                [
                  "batch_normalization_94",
                  0,
                  0,
                  {}
                ]
              ]
            ]
          },
          {
            "name": "mixed10",
            "config": {
              "name": "mixed10",
              "axis": 3,
              "trainable": true
            },
            "class_name": "Concatenate",
            "inbound_nodes": [
              [
                [
                  "activation_86",
                  0,
                  0,
                  {}
                ],
                [
                  "mixed9_1",
                  0,
                  0,
                  {}
                ],
                [
                  "concatenate_2",
                  0,
                  0,
                  {}
                ],
                [
                  "activation_94",
                  0,
                  0,
                  {}
                ]
              ]
            ]
          },
          {
            "name": "global_average_pooling2d_1",
            "config": {
              "data_format": "channels_last",
              "name": "global_average_pooling2d_1",
              "trainable": true
            },
            "class_name": "GlobalAveragePooling2D",
            "inbound_nodes": [
              [
                [
                  "mixed10",
                  0,
                  0,
                  {}
                ]
              ]
            ]
          },
          {
            "name": "dense_1",
            "config": {
              "kernel_constraint": null,
              "activity_regularizer": null,
              "trainable": true,
              "kernel_initializer": {
                "config": {
                  "mode": "fan_avg",
                  "distribution": "uniform",
                  "seed": null,
                  "scale": 1.0
                },
                "class_name": "VarianceScaling"
              },
              "bias_initializer": {
                "config": {},
                "class_name": "Zeros"
              },
              "units": 128,
              "name": "dense_1",
              "use_bias": true,
              "bias_constraint": null,
              "bias_regularizer": null,
              "activation": "relu",
              "kernel_regularizer": {
                "config": {
                  "l1": 9.999999747378752e-05,
                  "l2": 0.0
                },
                "class_name": "L1L2"
              }
            },
            "class_name": "Dense",
            "inbound_nodes": [
              [
                [
                  "global_average_pooling2d_1",
                  0,
                  0,
                  {}
                ]
              ]
            ]
          },
          {
            "name": "dropout_1",
            "config": {
              "name": "dropout_1",
              "seed": null,
              "trainable": true,
              "noise_shape": null,
              "rate": 0.0
            },
            "class_name": "Dropout",
            "inbound_nodes": [
              [
                [
                  "dense_1",
                  0,
                  0,
                  {}
                ]
              ]
            ]
          },
          {
            "name": "dense_2",
            "config": {
              "kernel_constraint": null,
              "activity_regularizer": null,
              "trainable": true,
              "kernel_initializer": {
                "config": {
                  "mode": "fan_avg",
                  "distribution": "uniform",
                  "seed": null,
                  "scale": 1.0
                },
                "class_name": "VarianceScaling"
              },
              "bias_initializer": {
                "config": {},
                "class_name": "Zeros"
              },
              "units": 7,
              "name": "dense_2",
              "use_bias": true,
              "bias_constraint": null,
              "bias_regularizer": null,
              "activation": "linear",
              "kernel_regularizer": {
                "config": {
                  "l1": 9.999999747378752e-05,
                  "l2": 0.0
                },
                "class_name": "L1L2"
              }
            },
            "class_name": "Dense",
            "inbound_nodes": [
              [
                [
                  "dropout_1",
                  0,
                  0,
                  {}
                ]
              ]
            ]
          },
          {
            "name": "activation_95",
            "config": {
              "name": "activation_95",
              "activation": "softmax",
              "trainable": true
            },
            "class_name": "Activation",
            "inbound_nodes": [
              [
                [
                  "dense_2",
                  0,
                  0,
                  {}
                ]
              ]
            ]
          }
        ],
        "input_layers": [
          [
            "input_1",
            0,
            0
          ]
        ]
      },
      "class_name": "Model"
    },
    "backend": "tensorflow"
  }
}